models/morphological_refiner.pth (torch, 695998 bytes, 67 tensors)

conv_layers.0.0.weight f4 [64, 1, 3]
0	0x3ec9099d	0.39265147
1	0x3d8e67a5	0.069533624
2	0xbebf28e8	-0.37335896
3	0x3eddf74c	0.43352735
4	0x3ee33152	0.44373566
5	0xbefbf611	-0.4921117
6	0xbec89f01	-0.3918381
7	0xbe39e411	-0.18153407
8	0xbebf31bc	-0.37342632
9	0xbec43743	-0.3832341
10	0x3db10c9f	0.086449854
11	0x3c9ea8e0	0.019367635
12	0xbed5a900	-0.417305
13	0x3e583eb9	0.21117677
14	0x3efaa3e4	0.48953164
15	0x3deec52a	0.116587
16	0xbe676ce8	-0.22600138
17	0x3ecdb572	0.40177494
18	0x3eeeb771	0.4662433
19	0x3cac3c32	0.021024797
20	0x3ebbb112	0.3665853
21	0x3e93eb16	0.28890294
22	0xbf0be3cb	-0.5464446
23	0x3df92e40	0.121670246
24	0x3e844afe	0.25838464
25	0xbd98c348	-0.07459122
26	0x3ed3ffff	0.41406247
27	0x3eed51fa	0.46351606
28	0xbe90e812	-0.28302056
29	0xbe5331e6	-0.20624503
30	0x3e56c63c	0.20974058
31	0x3e8579e2	0.26069552
32	0xbd08ae02	-0.03336907
33	0x3e99c572	0.3003345
34	0xbe78fd85	-0.2431546
35	0x3da5bf88	0.08093172
36	0x3eae2592	0.3401304
37	0x3e0af0f3	0.13568477
38	0x3e880350	0.26565027
39	0xbea098b9	-0.31366518
40	0xbe9aa9a8	-0.30207562
41	0x3f12240e	0.57086265
42	0xbdb0c6f1	-0.08631695
43	0xbc450855	-0.012025912
44	0x3edd4c1c	0.4322213
45	0xbe2218e7	-0.15829812
46	0x3c54f309	0.012997397
47	0x3be32a2d	0.006932518
48	0xbeb0da19	-0.34541395
49	0xbea0e29b	-0.31422886
50	0xbe811b90	-0.2521634
51	0x3edb19a8	0.42793012
52	0x3ecb6d98	0.3973205
53	0xbefe971b	-0.4972466
54	0x3e563c2c	0.20921391
55	0x3ebd1501	0.36930087
56	0xbe35685a	-0.17715588
57	0x3e863fcf	0.26220557
58	0x3deec4df	0.11658644
59	0x3e95f983	0.29291925
60	0x3e38f680	0.18062782
61	0xbe01d367	-0.126783
62	0x3eaf0fe8	0.34191823
63	0x3e19364b	0.14962117
64	0x3d1eec4f	0.03879958
65	0xbe58c9a5	-0.21170671
66	0xbf02cb8c	-0.5109184
67	0x3e98535a	0.29751092
68	0x3d9bcaed	0.076070644
69	0x3ec81a78	0.39082694
70	0xbecdf826	-0.40228385
71	0x3ea3ca30	0.31990194
72	0xbef6e207	-0.4821932
73	0xbde24234	-0.110477835
74	0xbe7751ac	-0.24152249
75	0xbddb5810	-0.10710156
76	0xbec8f545	-0.39249626
77	0xbd808a58	-0.06276387
78	0x3e902291	0.28151372
79	0xbd255537	-0.04036447
80	0x3e264d0b	0.16240327
81	0x3ed188e1	0.40924743
82	0xbea16b8a	-0.31527358
83	0x3d94f77c	0.072737664
84	0xbe2562c9	-0.16150965
85	0x3ea9e121	0.33179572
86	0x3bdd3950	0.006751217
87	0x3dc1a81e	0.09455894
88	0xbec8a4a5	-0.39188114
89	0xbe0a4d7a	-0.13506117
90	0x3eb370fe	0.35047144
91	0xbeed139a	-0.46304017
92	0xbecc3182	-0.3988152
93	0xbdcbdf5d	-0.099547125
94	0x3d3b4f03	0.04572965
95	0x3aa71c8d	0.0012749598
96	0x3e466c04	0.19377142
97	0x3e8fe6f2	0.28105885
98	0xbefe204d	-0.4963402
99	0xbec280f9	-0.37989023
100	0x3e898a16	0.26863164
101	0xbe528620	-0.20558977
102	0x3efd41f8	0.49464393
103	0xbefc419d	-0.4926881
104	0x3e7d82fc	0.24756998
105	0x3f0d76f0	0.5525961
106	0xbc2b3140	-0.010448754
107	0xbf117743	-0.56822604
108	0xbe1fc0b8	-0.1560086
109	0xbe1b8d53	-0.1519063
110	0xbe8b39ee	-0.27192634
111	0xbe4c33f2	-0.1994169
112	0x3ea14832	0.31500393
113	0xbeefa424	-0.46804917
114	0xbe227c3d	-0.15867706
115	0xbcce83a6	-0.02520926
116	0x3e285944	0.16440302
117	0x3e375747	0.17904387
118	0x3ebb0d3f	0.36533543
119	0x3e7ece88	0.24883473
120	0xbe9812de	-0.29701895
121	0x3e82882c	0.25494516
122	0x3edfce8a	0.43712264
123	0x3e2e31ce	0.17011186
124	0xbe0ba91c	-0.13638729
125	0x3dbbef1a	0.091764644
126	0x3e8d36ff	0.2758102
127	0x3e8739a4	0.26411164
128	0x3ebfc006	0.3745119
129	0x3db1593b	0.086595975
130	0x3cae56fd	0.021281714
131	0x3e1be02f	0.15222238
132	0xbee695e6	-0.45036238
133	0xbebc5cc9	-0.3678954
134	0xbdc66708	-0.096876204
135	0xbdea85e3	-0.11451318
136	0x3e9e08b2	0.3086601
137	0xbf00e756	-0.5035299
138	0xbe95574e	-0.2916817
139	0x3f10a2ca	0.56498396
140	0x3dd2cc1e	0.102928385
141	0x3e98b352	0.2982431
142	0x3e945eb0	0.2897849
143	0xbf0f50ea	-0.5598284
144	0x3e65a06c	0.22424477
145	0xbe87cdc7	-0.26524183
146	0xbe7d5300	-0.24738693
147	0x3e2e1e9c	0.17003864
148	0x3e166ada	0.14689198
149	0x3dc9b110	0.09848225
150	0xbeb8162a	-0.3595441
151	0x3d8bccca	0.0682617
152	0xbe995bf9	-0.29952982
153	0xbee469d0	-0.4461198
154	0x3e388fdb	0.18023627
155	0xbef6657e	-0.48124307
156	0x3e1bc2e3	0.15211062
157	0x3eb7184c	0.35760725
158	0xbe3e80ca	-0.18603817
159	0x3ec2362f	0.37931964
160	0x3e2980d5	0.16553052
161	0xbe79023c	-0.24317259
162	0xbf0e7c78	-0.55658674
163	0x3e2c28cf	0.16812442
164	0x3e0e9087	0.1392232
165	0xbe856c24	-0.26059067
166	0x3e96381a	0.29339677
167	0xbe58c6ba	-0.21169558
168	0x3ec2f4ad	0.38077298
169	0xbe3dcbc0	-0.18534756
170	0xbe11aeb6	-0.14226803
171	0xbcf4ff8a	-0.029907007
172	0x3ea7021a	0.3261879
173	0xbe90bcc5	-0.2826902
174	0xbe5322a7	-0.20618688
175	0xbea72633	-0.3264633
176	0x3e340394	0.1757949
177	0xbe4cfa2d	-0.2001731
178	0x3eafc0c9	0.3432677
179	0xbe9e46fb	-0.3091353
180	0xbecde2a7	-0.40211985
181	0xbeb1804f	-0.34668204
182	0xbee7c1b9	-0.45264986
183	0xbeb3de8f	-0.35130736
184	0xbe7994d7	-0.24373184
185	0x3e113640	0.14180851
186	0xbc89181e	-0.016735133
187	0x3e4dee18	0.20110357
188	0xbd26524c	-0.04060583
189	0xbe8515b8	-0.25993133
190	0x3e999da2	0.30003077
191	0xbee51c13	-0.4474798

conv_layers.0.0.bias f4 [64]
0	0xb7effd06	-2.8608843e-05
1	0x39319de9	0.00016938862
2	0xbe056fcb	-0.13030927
3	0xb89b62b7	-7.409363e-05
4	0xbdb04ef5	-0.0860881
5	0xba82a6ba	-0.0009967901
6	0x3c399dcb	0.011329125
7	0xbde0cd3c	-0.10976645
8	0xbdf5765e	-0.119854674
9	0xbcca0424	-0.024660178
10	0xbdb8bdf1	-0.090206034
11	0x3c8136cf	0.015773205
12	0x3641dd8b	2.8888196e-06
13	0x3952193c	0.00020036561
14	0x36ece38d	7.0598385e-06
15	0xb8f73ca1	-0.00011789171
16	0x3deee853	0.11665406
17	0x3d4990ac	0.049210235
18	0xbdf3d0da	-0.1190507
19	0x382f7420	4.18314e-05
20	0x3726fbb4	9.952975e-06
21	0xbc9883a8	-0.018617466
22	0xb835bccd	-4.3329597e-05
23	0x37ab90e5	2.045226e-05
24	0xb6cb9f32	-6.068404e-06
25	0xbe1f1831	-0.15536572
26	0x3cfe9858	0.031078503
27	0xb932e76c	-0.00017061614
28	0x3c653d54	0.013991673
29	0x3e08b64e	0.13350794
30	0x3b929215	0.0044729807
31	0x3a734ac5	0.0009280856
32	0xbe52be17	-0.20580326
33	0xb850e100	-4.9800612e-05
34	0x3da93ef5	0.08263961
35	0xb834ec14	-4.313521e-05
36	0xbda414ee	-0.080118045
37	0xb790df8c	-1.7270235e-05
38	0x3e06a42a	0.13148561
39	0x3d8350b6	0.06411879
40	0x3de4b1e7	0.11166745
41	0x3c80f528	0.0157419
42	0xbca972c5	-0.02068461
43	0xbce1d0eb	-0.02756544
44	0x3bd0a05c	0.0063667726
45	0x3da6f98d	0.08153067
46	0x3bb40f98	0.005495023
47	0x3c0d8e3f	0.008639871
48	0x38cdba7e	9.8098986e-05
49	0xb99e8b23	-0.00030239773
50	0xbcce2fd3	-0.025169289
51	0xbbdf2146	-0.0068093864
52	0x3d8fbb50	0.07018149
53	0xb9551f9e	-0.00020325041
54	0x3c3bf8fe	0.011472939
55	0x388907e1	6.5341366e-05
56	0xbdc297e2	-0.095016256
57	0x3985475a	0.00025420898
58	0x3dcd8079	0.1003427
59	0x389cbcb9	7.473812e-05
60	0x35cdb536	1.532643e-06
61	0x3ccf3d10	0.025297672
62	0xbc10e215	-0.008842965
63	0x3e51eeda	0.20501271

conv_layers.0.1.weight f4 [64]
0	0x3f7b4e71	0.9816657
1	0x3f7d3016	0.989015
2	0x3f816acd	1.0110718
3	0x3f80c28c	1.0059371
4	0x3f803b2c	1.0018058
5	0x3f779445	0.96710616
6	0x3f766512	0.9624797
7	0x3f75f021	0.9606953
8	0x3f746cfe	0.9547881
9	0x3f81031f	1.0079077
10	0x3f7a8310	0.97856236
11	0x3f73779a	0.9510437
12	0x3f733bdd	0.9501322
13	0x3f8455a0	1.0338631
14	0x3f73b0bf	0.9519157
15	0x3f79e694	0.9761746
16	0x3f7626d1	0.9615298
17	0x3f763cb6	0.9618639
18	0x3f75e76f	0.96056265
19	0x3f738b60	0.95134544
20	0x3f72f57f	0.9490585
21	0x3f7db933	0.99110717
22	0x3f806804	1.0031743
23	0x3f7636fe	0.9617766
24	0x3f7da95d	0.9908655
25	0x3f805a15	1.0027491
26	0x3f79b773	0.97545546
27	0x3f73fbd3	0.9530613
28	0x3f7ad2dc	0.97977996
29	0x3f7ad53c	0.9798162
30	0x3f7cc864	0.9874327
31	0x3f7bbb27	0.98332447
32	0x3f7be77a	0.9840008
33	0x3f7f1eca	0.99656355
34	0x3f70f51e	0.9412402
35	0x3f74dc10	0.9564829
36	0x3f79de1a	0.97604525
37	0x3f7abd80	0.97945404
38	0x3f7cd12f	0.9875669
39	0x3f7896ac	0.9710491
40	0x3f6b5c8e	0.919381
41	0x3f6ed7e8	0.93298197
42	0x3f79bf9c	0.97558
43	0x3f75a9be	0.9596213
44	0x3f7d8eb0	0.9904585
45	0x3f7c8204	0.9863589
46	0x3f78c009	0.9716802
47	0x3f763658	0.9617667
48	0x3f780dd0	0.96896076
49	0x3f736c0b	0.95086735
50	0x3f75ed6c	0.960654
51	0x3f71b419	0.9441543
52	0x3f70d7e3	0.94079417
53	0x3f72ac57	0.9479422
54	0x3f7f1406	0.9963993
55	0x3f802ee9	1.0014316
56	0x3f805886	1.0027015
57	0x3f7a0384	0.97661614
58	0x3f7862fb	0.9702603
59	0x3f7fb4d6	0.9988531
60	0x3f8048c0	1.0022202
61	0x3f80621a	1.0029938
62	0x3f750fc1	0.95727164
63	0x3f7402ab	0.9531657

conv_layers.0.1.bias f4 [64]
0	0xbd7325bc	-0.05936216
1	0x3d332838	0.043739527
2	0x3c4a3b30	0.012343213
3	0x3cf61333	0.030038452
4	0x3d60821b	0.05481158
5	0x3d193ab4	0.0374095
6	0xbb69ef41	-0.0035695585
7	0x3bf7cf48	0.0075625516
8	0xbcc66a12	-0.0242205
9	0xbd4093a2	-0.047015794
10	0x3ccea9d6	0.025227468
11	0x3d21436d	0.039370943
12	0x3b997421	0.004683033
13	0xbc1ce592	-0.009576218
14	0xb9edfec0	-0.00045393966
15	0xbd7c9e36	-0.06167432
16	0xbd5ac6e3	-0.05341233
17	0xbd5aeb1d	-0.053446878
18	0xbd142dfb	-0.036176663
19	0x3d151929	0.036400948
20	0x3d055321	0.03254998
21	0xbd1639df	-0.036676284
22	0xbc4d0f2f	-0.012515827
23	0x3885894c	6.367508e-05
24	0xbc12e268	-0.008965112
25	0x3cb19b07	0.021680368
26	0x3d1ce642	0.03830553
27	0xbc101154	-0.008793194
28	0x3d0a2025	0.03372206
29	0x3c9bf5e8	0.019038156
30	0xbd2dbdc0	-0.042417288
31	0x3c2ea0d5	0.0106584625
32	0xbd832725	-0.064039506
33	0x3b17962e	0.0023130286
34	0xbd10d5de	-0.03536021
35	0xbda7c5ef	-0.0819205
36	0x3c9f8e2a	0.019476969
37	0xbce0db64	-0.027448364
38	0xbd0723c4	-0.032993093
39	0x3d19326d	0.037401605
40	0x3ca63b0e	0.020291831
41	0xbc563e1a	-0.01307633
42	0x3c9c3d6e	0.01907226
43	0x3b5583a5	0.0032579687
44	0xbd04307d	-0.032272805
45	0xbd16845a	-0.036747314
46	0x3d1ca61e	0.03824436
47	0xbd25c70d	-0.040473033
48	0x3c881e59	0.016616033
49	0x3d16615d	0.036713947
50	0xbb5c5915	-0.0033622433
51	0xbbc03f9d	-0.0058669583
52	0xbd1b3b0a	-0.0378981
53	0xbc28a8ef	-0.010294183
54	0x3b9719d6	0.004611234
55	0xbbedaf78	-0.0072535835
56	0x3c2d6fc8	0.010585733
57	0xba1fa7d6	-0.0006090378
58	0xbd2578f3	-0.04039855
59	0xbbabb035	-0.0052395114
60	0x3b90758d	0.0044085444
61	0x3cb757da	0.022380758
62	0x3c968de1	0.0183782
63	0xbd7fecef	-0.062481817

conv_layers.0.1.running_mean f4 [64]
0	0x3d8998d2	0.06718601
1	0x3e965808	0.29364038
2	0xbf5b5c25	-0.85687476
3	0xbe591cfa	-0.2120246
4	0x3e023969	0.12717213
5	0x3e640333	0.22266845
6	0x3f2a4108	0.6650548
7	0xbe5c146c	-0.21492165
8	0x3eabd2e0	0.33559322
9	0xbd3b0e7a	-0.045668103
10	0x3e7721ce	0.24133989
11	0x3df93638	0.121685445
12	0x3f114a12	0.5675365
13	0xbd048ebd	-0.03236269
14	0x3e832550	0.25614405
15	0xbdd849b9	-0.105609365
16	0xbf140a41	-0.57828146
17	0x3e9a126b	0.30092177
18	0x3e3d36a6	0.18477878
19	0x3f03a369	0.5142122
20	0x3e9b0630	0.30278158
21	0xbd11692a	-0.035500683
22	0xbdd80f2a	-0.10549767
23	0x3e7112ee	0.23542377
24	0xbf23606e	-0.63819015
25	0xbf167917	-0.5877852
26	0x3eae804b	0.34082255
27	0x3e008a24	0.12552696
28	0x3e18dc38	0.14927757
29	0xbe45dd3c	-0.19322675
30	0xbec620c3	-0.3869687
31	0xbd23e0af	-0.040009197
32	0xbe65921e	-0.2241902
33	0xbe798b6a	-0.24369588
34	0x3e8d25ec	0.27567995
35	0xbc99778a	-0.018733758
36	0xbf068605	-0.5254825
37	0xbe8a4643	-0.2700673
38	0x3df4037b	0.11914726
39	0x3f2c57df	0.6732158
40	0x3ed577dd	0.4169301
41	0x3de6e868	0.11274797
42	0x3f2dbfdd	0.67870885
43	0x3e2e1ba4	0.17002732
44	0xbf314080	-0.69239044
45	0xbe1e3ee6	-0.15453681
46	0x3e95e637	0.29277202
47	0x3d01249c	0.031529054
48	0xbe621ce8	-0.2208134
49	0x3ea2aadd	0.31770983
50	0xbef4cdb6	-0.47813195
51	0xbf13e30d	-0.57768327
52	0x3ea3a7b5	0.31963888
53	0x3e6a2623	0.2286611
54	0xbe36ad19	-0.17839469
55	0xbe0b601b	-0.1361088
56	0xbd677c4d	-0.056515027
57	0x3c27b141	0.010235132
58	0xbe2e009e	-0.16992423
59	0xbe04f8c6	-0.12985525
60	0xbf6b380d	-0.918824
61	0xbea3d4ac	-0.31998193
62	0x3dce31d0	0.10068095
63	0xbdd5624c	-0.10419139

conv_layers.0.1.running_var f4 [64]
0	0x3a7a7c12	0.0009555231
1	0x3bd35f24	0.0064505506
2	0x3ceb2e79	0.028708683
3	0x3b2d0b1b	0.0026404324
4	0x3b62b331	0.003459167
5	0x3b2174ee	0.0024636346
6	0x3cbc69ae	0.02299961
7	0x3a8f7c8d	0.0010947153
8	0x3c34317f	0.010998129
9	0x3a3228a8	0.00067962194
10	0x3bd64fde	0.0065402826
11	0x3a25f745	0.00063310965
12	0x3c90b421	0.017664017
13	0x3a752393	0.0009351309
14	0x3b6ceba4	0.0036151195
15	0x3a28fd4b	0.0006446435
16	0x3cde8af5	0.02716587
17	0x3ba350be	0.0049839905
18	0x3bc09c6d	0.0058780224
19	0x3c6c317d	0.014416096
20	0x3b9a0917	0.0047007906
21	0x391415de	0.00014122526
22	0x3a8c9e7a	0.0010728382
23	0x3b31561d	0.0027059384
24	0x3cb76c13	0.022390401
25	0x3c30a934	0.010782529
26	0x3ba77ef3	0.005111569
27	0x3a8032d9	0.0009780779
28	0x3aa7e07f	0.0012807994
29	0x3bd4d963	0.006495641
30	0x3c1d228a	0.009590754
31	0x38d0829f	9.942543e-05
32	0x39f3c6ad	0.00046496597
33	0x3b4852cc	0.003056693
34	0x3afa0cf8	0.0019077351
35	0x3ab54d5b	0.0013832258
36	0x3c30fede	0.010802953
37	0x3b67dbb6	0.003537876
38	0x39099aba	0.00013122978
39	0x3caa7a60	0.020810306
40	0x3bbadaab	0.005702337
41	0x39f871d4	0.00047387055
42	0x3cddc62f	0.02707204
43	0x3b0aed67	0.0021198632
44	0x3ce3f5ed	0.027827227
45	0x3b34bac9	0.0027577153
46	0x3bb45c4e	0.0055041676
47	0x3a59b505	0.0008304867
48	0x3b4af0d7	0.0030966306
49	0x3bb9dd37	0.005672123
50	0x3c31b30e	0.010845913
51	0x3c8ae882	0.016956571
52	0x3b818eea	0.0039538043
53	0x3b69015e	0.0035553793
54	0x3b29d312	0.0025913161
55	0x3a6b13a0	0.0008967463
56	0x39f0ff49	0.0004596657
57	0x3909d1e4	0.00013143528
58	0x3b999f6b	0.0046881936
59	0x3a4909fa	0.0007669028
60	0x3d3f2a70	0.04667133
61	0x3bee8256	0.007278721
62	0x3a4c4410	0.00077921245
63	0x3b9d1ea1	0.004794911

conv_layers.0.4.weight f4 [64, 64, 3]
0	0xbc0f7392	-0.008755581
1	0xbd8c3329	-0.068456955
2	0xbd113477	-0.035450425
3	0xbd39f0e7	-0.045395758
4	0xbd29181f	-0.04128277
5	0x3c1ea97b	0.009683962
6	0x3d2a7d43	0.041623365
7	0xbb98c2f1	-0.0046619107
8	0x3c3543ad	0.011063498
9	0xbd9608ed	-0.07325921
10	0x3ce7ada6	0.028281044
11	0x3d093311	0.033495966
12	0xbd38035c	-0.04492508
13	0xbd7d6159	-0.061860416
14	0xbd2bbc29	-0.04192749
15	0x3d2ed0a7	0.042679455
16	0xbcb77684	-0.02239538
17	0xbd10c07c	-0.035339817
18	0x3d07a137	0.03311273
19	0x3d3f23e7	0.0466651
20	0xbd24c958	-0.04023108
21	0xbd8e2ff0	-0.06942737
22	0x3cf84391	0.030305656
23	0xbc80479d	-0.015659148
24	0x3cabf3d9	0.020990299
25	0xbccaff70	-0.024780005
26	0xbcea6e83	-0.02861715
27	0x3d86ade8	0.06576139
28	0x3d1334b2	0.035938926
29	0x3bcdb3de	0.0062775454
30	0xbd00b180	-0.031419277
31	0xbd9d07ed	-0.07667527
32	0x3bb04288	0.005379025
33	0xbc552cde	-0.013011185
34	0x3d7e66a1	0.062109593
35	0x3d404ed0	0.04695016
36	0x3c4290d0	0.011875346
37	0xbc0f42b4	-0.008743931
38	0x3d006b0c	0.031352088
39	0xbdb7a27f	-0.089665405
40	0xbce90982	-0.028446916
41	0xbd829a60	-0.06377101
42	0x3d8f8f44	0.070097476
43	0x3d8f801b	0.07006856
44	0x3c5e16b8	0.013555221
45	0xbbc71629	-0.0060756397
46	0xbd881e83	-0.06646445
47	0xbd94bbf8	-0.07262415
48	0xbd66d1c8	-0.056352407
49	0x3d65febd	0.05615114
50	0xbd34bb11	-0.044123713
51	0x3d16e335	0.036837775
52	0x3d298d53	0.041394543
53	0x3d7a9198	0.061174005
54	0xbc2138f1	-0.009840236
55	0x3d4d0598	0.050054163
56	0xbca9a406	-0.020708095
57	0x3c937bc2	0.018003348
58	0xbd40a52f	-0.04703253
59	0xbbd444b8	-0.0064779185
60	0x3cf7edfe	0.03026485
61	0x3d50d0a7	0.050980236
62	0x3cbc7bd5	0.023008266
63	0xbc314f3c	-0.010822114
64	0xbd026520	-0.03183472
65	0x3cee253c	0.02907049
66	0x3c605eaa	0.013694445
67	0xbd677a7c	-0.056513295
68	0xbdce258b	-0.100657545
69	0x3d14279f	0.036170598
70	0xbd8667f9	-0.065628
71	0x3cf26619	0.0295897
72	0xbd389bc0	-0.04507041
73	0x3c4b5963	0.012411448
74	0xbd82d857	-0.0638892
75	0xbce18391	-0.027528556
76	0x3d81658b	0.06318196
77	0xbd7ce874	-0.061745122
78	0x3d66a4de	0.056309573
79	0x3d4ffe61	0.050779704
80	0xbc778bfa	-0.015109057
81	0x3d27ee57	0.040998783
82	0x3da6c878	0.08143705
83	0x3d3e56fc	0.046469674
84	0x3d17381d	0.03691875
85	0xbd23095b	-0.039803844
86	0xbd5d2da3	-0.0539986
87	0xbc0ee28e	-0.008721007
88	0x3cd3f869	0.025875287
89	0x3d8d079d	0.06886218
90	0x3b54880c	0.0032429723
91	0xbc6a8dac	-0.014316004
92	0xbd764dc8	-0.06013277
93	0xbdd12622	-0.102123514
94	0xbceaa8a3	-0.028644865
95	0xbc8b00c8	-0.016968146
96	0x3d8061b0	0.062686324
97	0x3caceb0c	0.021108173
98	0x3d4aedbb	0.049543124
99	0xbd2ba121	-0.04190171
100	0x3bc9af35	0.0061549195
101	0xbbde0a8d	-0.00677616
102	0xbc1d7b6f	-0.009611948
103	0xbdb79ad7	-0.0896508
104	0x3d54b873	0.051933717
105	0xbd0c5de8	-0.034269243
106	0xbd835fac	-0.06414732
107	0xbd677fb3	-0.056518268
108	0x3ca04ae4	0.01956696
109	0x3c9b1aff	0.018933771
110	0xbd27962f	-0.04091471
111	0x3cb03ec8	0.021514311
112	0x3b62d3db	0.003461114
113	0x3ceba9e1	0.028767528
114	0xbdb352ed	-0.08756051
115	0xbdce32a5	-0.100682534
116	0xbd807fb5	-0.06274358
117	0xbd2931ab	-0.041307133
118	0xbcaef3cb	-0.021356484
119	0xbd608cff	-0.054821964
120	0x3b618ea5	0.0034417298
121	0xbd3f25fb	-0.04666708
122	0x3d46c6d8	0.048529476
123	0x3cdbb708	0.026820675
124	0xbc08a7f2	-0.0083408225
125	0x3d70b5ca	0.058767118
126	0x3ceb411b	0.028717568
127	0xbd896dee	-0.067104205
128	0x3c452fee	0.012035353
129	0x3bb7a404	0.005604269
130	0xbd8a4b26	-0.06752615
131	0x3d3927e6	0.045204066
132	0xbc263373	-0.010144102
133	0x3cd50d1a	0.026007224
134	0x3d192fd4	0.037399128
135	0x3d0e86ca	0.034796514
136	0x3d32aa5c	0.0436195
137	0xbc9d74b9	-0.019220697
138	0x3d5c7790	0.05382496
139	0x3d291dcc	0.041288182
140	0xbcc56787	-0.024097217
141	0xbd4a0c76	-0.04932829
142	0xbc4c1163	-0.012455317
143	0xbd38acca	-0.04508666
144	0x3d8ee4cd	0.06977234
145	0x3c8a8b56	0.016912144
146	0xbcc82098	-0.024429604
147	0x3d23afe9	0.039962683
148	0x3d0bfd40	0.034177065
149	0x3d4015a4	0.046895638
150	0xbd59ed0c	-0.05320458
151	0xbd8cfb88	-0.06883913
152	0x3c3b117a	0.011417741
153	0xbc9c1ab5	-0.019055704
154	0xbd8ac75f	-0.06776308
155	0xbd922ec3	-0.07137825
156	0x3b7f68c4	0.0038972357
157	0x3c4df3d3	0.012570339
158	0x3d56f92f	0.052483734
159	0xbd774553	-0.060368847
160	0xbd5e61e0	-0.05429256
161	0x3c9cb20e	0.019127872
162	0xbdce4a3d	-0.100727536
163	0x3c80eeff	0.015738962
164	0x3d3105ae	0.043218307
165	0xbb99fb9e	-0.0046991846
166	0xbd48a343	-0.048983824
167	0x3b141be3	0.002259963
168	0xbd7b62dc	-0.061373577
169	0xbc7f793c	-0.015592869
170	0xbceee0c8	-0.029159918
171	0x3d9e0362	0.07715489
172	0x3cc0e289	0.02354552
173	0x3d9fb04f	0.077973
174	0xbd9452c3	-0.07242348
175	0x3c924ce6	0.017858934
176	0xbcbdb39b	-0.023156932
177	0xbd67bc9e	-0.056576364
178	0xbd89ec2d	-0.067345
179	0x3c0aa424	0.008461986
180	0x3cb2be04	0.021819122
181	0xbbbfc70b	-0.005852585
182	0xbd3763be	-0.044772856
183	0xbd9aac01	-0.075523384
184	0xbd45ea46	-0.048319124
185	0x3d05e133	0.03268547
186	0xbd50513e	-0.05085873
187	0x3d2f164c	0.042745873
188	0xbd9305e2	-0.071788564
189	0xbc484bb9	-0.012225085
190	0x3c439548	0.011937447
191	0x3b624070	0.003452327
192	0xbd08a83d	-0.03336357
193	0x3cdb1de1	0.026747646
194	0xbc5c21b0	-0.013435766
195	0x3d446b1f	0.04795372
196	0x3d61391d	0.054986108
197	0x3d8841cd	0.066531755
198	0xbc993d13	-0.01870588
199	0xbd95505e	-0.072907194
200	0xbd8601bf	-0.06543302
201	0xbdbf0f33	-0.09329071
202	0x3cfcace2	0.030844156
203	0xbd92cf68	-0.07168466
204	0x3cd5fd34	0.026121713
205	0x3b074a06	0.0020643487
206	0x3da6ed42	0.08150722
207	0x3cec7568	0.028864577
208	0x3cf0f47a	0.02941345
209	0x3c9eef39	0.01940118
210	0x39807abc	0.00024505507
211	0x3ccee72f	0.025256721
212	0x3bfd6fcf	0.007734276
213	0x3d4fbbd5	0.05071624
214	0x3d1c3d5a	0.038144447
215	0xbd7ce83c	-0.061744913
216	0x3c802aa2	0.015645329
217	0xbce960e3	-0.028488582
218	0x398bc1bf	0.00026656498
219	0xbda103c9	-0.0786205
220	0x39022c42	0.00012414253
221	0x3b9d2766	0.0047959564
222	0x3c8ca5e2	0.017168943
223	0x3d060b82	0.03272582
224	0x3d30cf07	0.043166187
225	0xbcdc98de	-0.026928362
226	0x3db30adc	0.08742306
227	0x3d0a512b	0.033768814
228	0xbd392f6c	-0.04521124
229	0xbd4a68b2	-0.04941625
230	0x3cdb387a	0.026760329
231	0xbda6fa8f	-0.08153259
232	0xbd453bc4	-0.0481527
233	0xbd14accd	-0.03629761
234	0xbd38b8c4	-0.04509808
235	0x3c8ee670	0.017443866
236	0x3c99c273	0.018769478
237	0xbd102dc2	-0.035199888
238	0x3d534633	0.05158062
239	0xb9c4ae20	-0.00037513766
240	0x3d7ca444	0.061680093
241	0x3c957180	0.018242598
242	0x3d03df36	0.032195292
243	0xbd1e3765	-0.038627047
244	0xbd86169d	-0.06547282
245	0xbd61b74b	-0.055106442
246	0xbd85951d	-0.06522582
247	0xbd1c9cfd	-0.038235653
248	0x3d4d3898	0.0501028
249	0x3ca34550	0.019930512
250	0x3c9d6bfc	0.01921653
251	0x3d8739ca	0.06602819
252	0xbd8ed15b	-0.06973525
253	0x3d8b896c	0.068133205
254	0x3d6ee4d1	0.058323685
255	0xbd56e964	-0.052468672

conv_layers.0.4.bias f4 [64]
0	0x362256e3	2.4190456e-06
1	0xb6516ad5	-3.1205611e-06
2	0xb681c6b4	-3.8676317e-06
3	0x3787ae1b	1.6174328e-05
4	0x353a2365	6.9341905e-07
5	0xb5f55307	-1.8278087e-06
6	0xb60bbeda	-2.0823704e-06
7	0x35a851b6	1.2540756e-06
8	0xb6364c87	-2.7164658e-06
9	0xb6ed788b	-7.0771835e-06
10	0xb717e9ca	-9.054735e-06
11	0x377a54ad	1.4920876e-05
12	0x35a188ad	1.2035213e-06
13	0xb735606d	-1.0810892e-05
14	0xb4ab7c45	-3.194165e-07
15	0x34b0ec9b	3.2954708e-07
16	0xb5c644c8	-1.4772168e-06
17	0xb625e7de	-2.472188e-06
18	0x3671ccc9	3.6031e-06
19	0x359c31fc	1.1637453e-06
20	0xb744a7dc	-1.1721593e-05
21	0x351ba428	5.798088e-07
22	0x34465967	1.8472711e-07
23	0xb6b58a43	-5.410316e-06
24	0xb529f3f7	-6.331242e-07
25	0xb68a2e2c	-4.1180956e-06
26	0x363aa5b6	2.7812616e-06
27	0x371d2e77	9.368748e-06
28	0xb56bf937	-8.790698e-07
29	0xb673ed4c	-3.6347947e-06
30	0xb6582ee6	-3.2213807e-06
31	0x363f267a	2.8483614e-06
32	0x36a3cfe4	4.88198e-06
33	0xb6d5a78f	-6.367401e-06
34	0xb68fc5c1	-4.2847537e-06
35	0x3513731b	5.492927e-07
36	0x35ea7d50	1.7470829e-06
37	0xb5c4a316	-1.4650602e-06
38	0x37535b36	1.2597817e-05
39	0x3652aba2	3.1392342e-06
40	0xb5ddc3d3	-1.6522775e-06
41	0xb6cf03a1	-6.169503e-06
42	0x34f29676	4.5185487e-07
43	0x36d4226f	6.322101e-06
44	0x37558ba8	1.2728306e-05
45	0x363c069f	2.8018037e-06
46	0x357a6c55	9.32899e-07
47	0x37bf6480	2.2815773e-05
48	0x373c6870	1.12299895e-05
49	0xb428e7e2	-1.5730578e-07
50	0xb7044240	-7.883238e-06
51	0xb6593a32	-3.2369394e-06
52	0xb50f76ad	-5.344435e-07
53	0xb5c65c96	-1.4779096e-06
54	0x37074b8e	8.0642185e-06
55	0x358ea2a4	1.0627159e-06
56	0x366c2b2c	3.519187e-06
57	0xb7057bda	-7.956254e-06
58	0xb5d2c93c	-1.5704786e-06
59	0x350af92b	5.1771593e-07
60	0xb68f576f	-4.2719107e-06
61	0xb1abe071	-5.002271e-09
62	0xb4ddb251	-4.12942e-07
63	0x34804832	2.3894387e-07

conv_layers.0.5.weight f4 [64]
0	0x3f6373ce	0.8884858
1	0x3f75a1c1	0.9594994
2	0x3f6e51ab	0.93093365
3	0x3f7cb394	0.98711514
4	0x3f6f6f4d	0.93529207
5	0x3f71b17f	0.9441146
6	0x3f77bad7	0.9676947
7	0x3f74712f	0.95485204
8	0x3f7947ea	0.9737536
9	0x3f73d9c6	0.9525417
10	0x3f7487f6	0.9551996
11	0x3f79807b	0.9746167
12	0x3f7160c1	0.9428826
13	0x3f7345c0	0.95028305
14	0x3f753c12	0.95794785
15	0x3f79afd6	0.9753393
16	0x3f6f3879	0.93445545
17	0x3f73e08a	0.95264494
18	0x3f7505f9	0.9571224
19	0x3f769aa4	0.9632971
20	0x3f79e784	0.9761889
21	0x3f7908b8	0.9727893
22	0x3f739c37	0.9516024
23	0x3f78d7d1	0.9720431
24	0x3f70f2ed	0.94120675
25	0x3f71abda	0.9440285
26	0x3f75eff7	0.9606928
27	0x3f7a3908	0.9774327
28	0x3f803c31	1.0018369
29	0x3f755189	0.9582754
30	0x3f765526	0.96223676
31	0x3f756b4d	0.95866853
32	0x3f771739	0.9651981
33	0x3f7c8c0c	0.98651195
34	0x3f6e597b	0.93105286
35	0x3f742a8b	0.95377415
36	0x3f7762bb	0.96635026
37	0x3f714eb1	0.942607
38	0x3f71e251	0.94485956
39	0x3f7d9c8b	0.9906699
40	0x3f747f1d	0.9550646
41	0x3f7cf39a	0.98809206
42	0x3f744744	0.9542124
43	0x3f79c550	0.975667
44	0x3f7d5899	0.98963314
45	0x3f7f5634	0.9974091
46	0x3f7560d5	0.9585088
47	0x3f804490	1.0020924
48	0x3f7cf578	0.98812056
49	0x3f78d60e	0.9720162
50	0x3f7a2081	0.9770585
51	0x3f77f7f2	0.9686271
52	0x3f7663a6	0.962458
53	0x3f791b1c	0.9730699
54	0x3f72b47b	0.9480664
55	0x3f6cf0d7	0.9255499
56	0x3f80eecd	1.0072876
57	0x3f78477e	0.9698409
58	0x3f7963ea	0.9741808
59	0x3f77d35b	0.9680688
60	0x3f7dfa8f	0.9921045
61	0x3f75a033	0.9594757
62	0x3f7545d0	0.9580965
63	0x3f7d72fb	0.9900357

conv_layers.0.5.bias f4 [64]
0	0xbd78bc99	-0.060726736
1	0xbca51726	-0.02015264
2	0xbd3ce946	-0.046120904
3	0x3cad49b2	0.021153305
4	0x3c31daa5	0.010855352
5	0xbc748c0a	-0.014925966
6	0x3c1f6fd4	0.009731252
7	0x3b73a56b	0.0037177454
8	0xbd91ca55	-0.0711867
9	0xbc46be3e	-0.012130318
10	0xbc80e899	-0.015735911
11	0x3b1c4135	0.0023842577
12	0xbce1b0bc	-0.027550094
13	0xbcce4ccc	-0.025183104
14	0xbcbdd87a	-0.023174513
15	0x3a811e56	0.000985096
16	0xbbc1186c	-0.005892804
17	0xbd19c0b6	-0.0375373
18	0x3c454e77	0.012042633
19	0x3b1299c7	0.002236949
20	0x3c49a73b	0.012307937
21	0xbcf67a94	-0.030087747
22	0xbcf3ad9c	-0.02974587
23	0xbc7a79b2	-0.0152878035
24	0xbb2ae48f	-0.0026076173
25	0xbd828501	-0.06373025
26	0xbce45983	-0.027874714
27	0xb9bc1ee1	-0.0003588116
28	0x3b4ec6d2	0.0031551612
29	0xbc0258c6	-0.007955736
30	0x3c926de2	0.017874662
31	0xbd091eda	-0.033476688
32	0xbcbb5d1c	-0.022871546
33	0x3be61465	0.007021474
34	0x3b715cc5	0.0036828977
35	0xbc3c3abb	-0.011488612
36	0xbc49a25e	-0.012306778
37	0xbc808439	-0.015688049
38	0x3d1400a9	0.036133442
39	0x3b51cfd7	0.0032014751
40	0xbca0f0a1	-0.01964599
41	0x3ce687ed	0.028140986
42	0xbca7e56b	-0.020495137
43	0x38aa1d19	8.1116516e-05
44	0x3bbe13c5	0.0058006966
45	0x3cb2c2d3	0.021821415
46	0xbd05f9a4	-0.03270878
47	0x3c3a1e91	0.011359827
48	0xbb4b6af3	-0.0031039088
49	0xbc765e39	-0.015037113
50	0x3b20c4be	0.002453133
51	0x3ca8c599	0.020602034
52	0xbcdba57e	-0.026812311
53	0xbd30bb5e	-0.043147437
54	0xbbf494e2	-0.0074640373
55	0xbcd621af	-0.026139108
56	0x3c833f1c	0.016021304
57	0x3c5bae3d	0.013408241
58	0xbc4b622e	-0.012413545
59	0xbc26f525	-0.010190283
60	0xbbbddc49	-0.0057940823
61	0xbc80b436	-0.015710931
62	0xbcb1bdbe	-0.021696921
63	0x3c5a8490	0.013337269

conv_layers.0.5.running_mean f4 [64]
0	0xbe764ace	-0.24051973
1	0xbea00db4	-0.31260455
2	0xbed7e740	-0.42168617
3	0xbf3432d6	-0.7039007
4	0x3e809ccd	0.2511963
5	0xbdef85b7	-0.11695426
6	0xbed4b23d	-0.41542235
7	0xbf18736a	-0.5955111
8	0x3f22e539	0.63631016
9	0xbe84052b	-0.25785193
10	0xbf08235f	-0.5317897
11	0xbec1775b	-0.37786373
12	0x3ec1114f	0.37708518
13	0xbe9ffcf8	-0.31247687
14	0x3e0c3564	0.13692242
15	0xbef78ceb	-0.483497
16	0x3e8b8f9d	0.27258006
17	0xbdbec638	-0.09315151
18	0x3d989a12	0.074512616
19	0xbef5dac8	-0.4801848
20	0xbe9cee3f	-0.30650517
21	0x3eec3099	0.46130827
22	0x3e189329	0.14899887
23	0xbf0a96af	-0.54136175
24	0xbdb5870b	-0.08863648
25	0x3eeb8952	0.46003205
26	0x3df4a5d6	0.11945693
27	0xbeb8b6e4	-0.36077034
28	0xbf290b4f	-0.6603288
29	0x3e4c5425	0.19953974
30	0xbf257cc9	-0.6464353
31	0x3e7fd53a	0.24983683
32	0xbe84e3e9	-0.25955132
33	0xbeee512b	-0.465463
34	0xbeaa05e0	-0.33207607
35	0x3f2f1740	0.6839485
36	0x3e66cd2a	0.22539201
37	0x3eaf2353	0.34206638
38	0xbf10663b	-0.5640599
39	0x3eed7a23	0.46382245
40	0x3eaf9f23	0.343011
41	0xbf47a940	-0.7799263
42	0x3df1018b	0.117678724
43	0xbebbe80d	-0.36700478
44	0xbf136fd7	-0.5759253
45	0xbf0ce028	-0.55029535
46	0x3ee71452	0.4513269
47	0xbf29fcb9	-0.6640125
48	0xbf309b6f	-0.6898717
49	0x3ef7c78d	0.48394433
50	0xbee2937c	-0.44253147
51	0xbe946498	-0.28982997
52	0x3f26244b	0.6489913
53	0x3f340201	0.7031556
54	0xbe0f5780	-0.13998222
55	0xbeb9e88a	-0.36310226
56	0xbf4927b3	-0.785762
57	0xbf2c8359	-0.6738792
58	0x3f12c04b	0.57324666
59	0x3ef8b348	0.4857428
60	0xbe184c83	-0.14872937
61	0x3f01a1a3	0.50637263
62	0x3dccfa57	0.10008686
63	0xbee21900	-0.44159698

conv_layers.0.5.running_var f4 [64]
0	0x3fb0590b	1.3777174
1	0x4010de47	2.2635667
2	0x4040d69d	3.013099
3	0x40410b2b	3.0163066
4	0x3fc9771f	1.5739478
5	0x3fba06bc	1.4533305
6	0x40927e5d	4.577925
7	0x3f089de7	0.5336594
8	0x40286535	2.6311772
9	0x3f929dea	1.1454442
10	0x3f0488f4	0.51771474
11	0x3e9e14eb	0.30875334
12	0x3f88e18a	1.0693829
13	0x3e4d68c4	0.20059496
14	0x3f16740d	0.5877083
15	0x3fdd636b	1.7295965
16	0x40027814	2.038579
17	0x3f9c7f41	1.2226335
18	0x3f192968	0.59828806
19	0x3eae9c4b	0.34103617
20	0x3fec8925	1.8479353
21	0x3f98792b	1.1911978
22	0x3f13ed04	0.5778353
23	0x40803f70	4.007744
24	0x3f7b089e	0.98060024
25	0x3ec9fd90	0.39451265
26	0x3f08479d	0.53234273
27	0x3f43bc08	0.7645879
28	0x40352745	2.8305218
29	0x3fdf4aac	1.7444663
30	0x4021e73c	2.5297384
31	0x3e7d65b8	0.24745834
32	0x3fc476d6	1.5348766
33	0x3f61f4a7	0.88263935
34	0x400f3870	2.2378197
35	0x400059f4	2.0054903
36	0x3f9ee6e8	1.2414217
37	0x3f5c0352	0.85942566
38	0x402315fd	2.548217
39	0x3f028ff0	0.5100088
40	0x3fc0cd48	1.5062647
41	0x407c0eec	3.9384108
42	0x3f2cd704	0.6751559
43	0x3ff87b6d	1.9412667
44	0x3fa4e6f0	1.2882977
45	0x3ffd5b1d	1.979343
46	0x3fc87e64	1.5663571
47	0x3feffd7d	1.8749233
48	0x4013cd78	2.3094158
49	0x3fa3b452	1.2789404
50	0x3fb9f677	1.452834
51	0x403be08c	2.9355803
52	0x4021859c	2.5237799
53	0x3faf2b76	1.3685138
54	0x3f8d3d84	1.1034398
55	0x40063f88	2.0976276
56	0x4060b698	3.5111446
57	0x402100ea	2.5156808
58	0x3fc8d967	1.5691346
59	0x404c6c72	3.194119
60	0x3f79405a	0.9736382
61	0x3f977c33	1.1834778
62	0x3f30e2db	0.69096154
63	0x4083b8d8	4.116314

conv_layers.1.0.weight f4 [64, 1, 5]
0	0xbd19fcde	-0.03759467
1	0x3e08587e	0.13315007
2	0x3e65593f	0.22397326
3	0xbdb1dffa	-0.08685298
4	0xbebb9e50	-0.3664422
5	0x3e77afc9	0.2418815
6	0xbe92a09d	-0.28638163
7	0xbe9f2ec5	-0.3109037
8	0x3edfaf81	0.43688586
9	0xbce897c7	-0.028392686
10	0xbe996890	-0.29962587
11	0x3d36ecf1	0.04465956
12	0xbe45265b	-0.19252913
13	0x3da5bfd2	0.080932274
14	0x3ea6c1a5	0.32569614
15	0xbd12ecca	-0.03587035
16	0xbeb252cd	-0.34828797
17	0xbdb45066	-0.08804397
18	0x3e24bcbf	0.16087626
19	0xbd2c578e	-0.042075686
20	0x3d127b97	0.035762396
21	0x3e842658	0.25810504
22	0x3e8a4dfc	0.27012622
23	0x3deb005e	0.114746794
24	0x3e85cadf	0.2613134
25	0xbe4865d2	-0.19570091
26	0xbed75f51	-0.42064908
27	0x3c8c5682	0.017131094
28	0x3e5475d9	0.2074808
29	0x3ed78f64	0.42101586
30	0x3dbad30e	0.09122287
31	0xbe112140	-0.1417284
32	0x3e67e4d5	0.22645886
33	0x3e17c6c6	0.1482192
34	0x3a1bb7d8	0.00059401756
35	0x3d147649	0.036245618
36	0x3db6b617	0.0892145
37	0x3da4d79a	0.08048935
38	0x3e51bed9	0.20482959
39	0x3e9a558a	0.30143386
40	0x3e08c8dd	0.13357873
41	0xbda0d633	-0.07853355
42	0x3e0606bf	0.13088511
43	0x3eb13e0f	0.3461766
44	0xbed74bc1	-0.42049983
45	0x3e75134c	0.23933142
46	0xbedf51c7	-0.4361708
47	0xbd1837ee	-0.037162714
48	0xbe820651	-0.25395444
49	0xbe7dec0e	-0.24797079
50	0x3c71332f	0.014721676
51	0xbdc55a70	-0.0963639
52	0x3e9b4d47	0.30332395
53	0x3e8405b7	0.2578561
54	0x3bd182a8	0.0063937493
55	0xbe9763ec	-0.29568422
56	0x3d298ab0	0.04139203
57	0xbe6221fc	-0.22083277
58	0xbde092ff	-0.10965537
59	0xbecd95a9	-0.40153244
60	0xbed78e5d	-0.42100802
61	0x3ebce6de	0.36894888
62	0xbeb33a1a	-0.35005265
63	0x3e932fbd	0.2874736
64	0xbec72d58	-0.38901782
65	0x3eace06a	0.33764964
66	0x3e556236	0.20838246
67	0xbd58185d	-0.05275761
68	0x3ce3b232	0.027794931
69	0x3d95139f	0.07279133
70	0x3d321d08	0.043484718
71	0x3e9e9d01	0.3097916
72	0x3e972dc4	0.29527104
73	0x3ec6cd93	0.38828716
74	0xbdf20b2a	-0.118185356
75	0xbe8cd3c6	-0.2750532
76	0xbe7d187b	-0.2471637
77	0xbe673377	-0.22578226
78	0xbe1bd28c	-0.15217036
79	0xbe628813	-0.2212222
80	0xbec63ced	-0.38718358
81	0x3d9b8a79	0.07594771
82	0xbd9f768c	-0.07786283
83	0xbe2ad8d3	-0.16684274
84	0xbe058625	-0.13039453
85	0x3db17f21	0.08666826
86	0x3e49df0d	0.19713993
87	0x3e08434c	0.13306922
88	0xbe93df7d	-0.28881446
89	0xbec0e15d	-0.3767194
90	0xbec507f5	-0.38482633
91	0x3e788d91	0.24272753
92	0xbd3ddbbe	-0.04635214
93	0x3e1bd1af	0.15216707
94	0xbca75710	-0.020427257
95	0xbdf1aea9	-0.11800892
96	0x3e315c02	0.17320254
97	0xbe350b19	-0.17680015
98	0x3eb1988a	0.3468669
99	0x3df97ddc	0.12182209
100	0x3ea1c844	0.31598103
101	0xbdd0ed1f	-0.10201477
102	0x3ed45fd6	0.41479367
103	0x3d4c5b3e	0.049891703
104	0xbecb1cb0	-0.39670324
105	0x3ebc56e1	0.36785033
106	0xbed0542b	-0.40689215
107	0x3ea1903a	0.3155535
108	0x3d0c2893	0.034218382
109	0xbe84b6f0	-0.2592082
110	0xbec14df5	-0.3775479
111	0x3e8972d0	0.26845407
112	0xbec17fd2	-0.37792832
113	0x3dc3c3a7	0.09558802
114	0x3dbedc64	0.0931938
115	0xbdab4563	-0.08362844
116	0xbe86e87c	-0.26349247
117	0xbe91114c	-0.2833351
118	0x3eb6ae6f	0.35679957
119	0x3e6459ad	0.22299834
120	0x3ea30215	0.31837526
121	0xbed52634	-0.4163071
122	0x3e2d71f0	0.16937995
123	0x3eb4e2f2	0.35329396
124	0xbe4a822b	-0.19776218
125	0x3e6df1d3	0.2323678
126	0xbb1859c5	-0.0023246866
127	0x3d472e3c	0.048628077
128	0xbd1abd68	-0.037778288
129	0x3e6a6cb9	0.22893037
130	0x3e99d1f1	0.30042985
131	0xbe5a473a	-0.21316233
132	0xba89a4a2	-0.0010501335
133	0x3e2019a2	0.15634778
134	0x3eccabc9	0.39974812
135	0xbeb4da83	-0.3532296
136	0x3e9e5874	0.3092686
137	0x3e4308a1	0.1904626
138	0x3e852933	0.26007995
139	0x3e3e1c7f	0.18565558
140	0x3e0f4853	0.13992433
141	0x3e37fd24	0.17967659
142	0x3eaa2417	0.3323066
143	0xbc3d0167	-0.011535979
144	0x3e477205	0.19477089
145	0x3e945c6b	0.2897676
146	0xbcdf54a4	-0.02726204
147	0x3e4cbbec	0.19993562
148	0x3e1c46e5	0.15261419
149	0x3c8c1dde	0.017104086
150	0x3d6dc6f5	0.05805107
151	0xbed03871	-0.4066806
152	0x3df39d73	0.118952654
153	0x3e4bee4f	0.19915126
154	0x3e050623	0.12990622
155	0xbdb88e63	-0.09011533
156	0x3debfc84	0.11522773
157	0xbe48529c	-0.19562763
158	0x3ecd1565	0.40055385
159	0xbeaa8f62	-0.33312517
160	0xbdcfc162	-0.10144307
161	0x3dae4c4e	0.08510648
162	0xbdc08e0a	-0.09402092
163	0x3cbdeb26	0.023183417
164	0xbebf4b87	-0.3736231
165	0xbeac16d0	-0.33611155
166	0x3c2f9141	0.010715784
167	0x3ebdd7c0	0.37078667
168	0xbc751c49	-0.014960357
169	0xbdcd7f82	-0.10034086
170	0x3ea3eb71	0.32015565
171	0xbea75157	-0.32679245
172	0x3ed553fa	0.41665632
173	0x3e544a66	0.20731506
174	0xbecbb05c	-0.3978299
175	0x3dbb4899	0.09144706
176	0x3b95c580	0.004570663
177	0x3e1414fc	0.1446113
178	0xbe4a9ad4	-0.19785625
179	0xbd5426a3	-0.05179466
180	0x3ebef6ee	0.37297767
181	0x3e1aed29	0.15129532
182	0xbe079509	-0.13240446
183	0xbea0728d	-0.31337395
184	0xbeaf096a	-0.3418687
185	0x3e9e2605	0.30888382
186	0xbeea6bd1	-0.45785382
187	0x3e8ca7c8	0.27471757
188	0xbd1f2544	-0.0388539
189	0x3c4c9cb7	0.012488536
190	0x3dbbac9c	0.09163782
191	0x3eb76387	0.3581812
192	0xbeae471c	-0.34038627
193	0xbc13d2e9	-0.009022453
194	0x3e6474cd	0.22310181
195	0x3e197bc0	0.14988613
196	0x3eb8ae0a	0.3607028
197	0xbec39baa	-0.382047
198	0xbea3aedc	-0.31969345
199	0xbe7b92f9	-0.24567784
200	0xbed6fbc8	-0.4198897
201	0x3c7e1328	0.015507497
202	0x3e0f3a5f	0.1398711
203	0xbdf460e6	-0.119325444
204	0xbed4dedc	-0.41576278
205	0xbeb05a82	-0.34444052
206	0xbe37724d	-0.17914696
207	0xbe871609	-0.26384
208	0x3c05cef0	0.0081670135
209	0x3cb6f191	0.022331985
210	0x3e3f1cd0	0.18663335
211	0x3ea24c2f	0.31698748
212	0xbe9eb10c	-0.3099445
213	0xbeaed95c	-0.34150207
214	0xbe03e6c7	-0.12881003
215	0xbdb61107	-0.088899665
216	0x3eb6aab7	0.3567712
217	0x3df7f9a2	0.121081606
218	0x3df49c25	0.11943845
219	0x3eb5073f	0.3535709
220	0x3d25ee49	0.04051045
221	0x3d7407d1	0.059577767
222	0xbe967c9f	-0.29391953
223	0x3d636841	0.055519346
224	0xbe3761b9	-0.17908372
225	0x3d14ccbb	0.03632806
226	0x3db6e721	0.08930803
227	0xbc6fce00	-0.014636517
228	0x3e586d40	0.21135426
229	0xbeac2327	-0.3362057
230	0x3e215515	0.15755112
231	0xbd934ad2	-0.07192005
232	0x3e007834	0.12545854
233	0x3d953459	0.07285375
234	0xbeb19e90	-0.34691286
235	0x3e14e550	0.14540601
236	0xbe72078d	-0.23635693
237	0xbe5fa978	-0.21841991
238	0xbe5d0e26	-0.21587428
239	0xbda2f099	-0.079560466
240	0xbe727198	-0.23676145
241	0x3dff30ad	0.12460456
242	0x3e0061fd	0.1253738
243	0xbea148fb	-0.31500992
244	0xbe445d66	-0.19176254
245	0xbe729d16	-0.23692736
246	0x3dc6d1c9	0.09707982
247	0xbe9d0d2a	-0.30674106
248	0xbe9e4d9f	-0.30918595
249	0x3eab94d2	0.33511978
250	0xbeb73199	-0.35780028
251	0xbe8676bb	-0.2626246
252	0xbeb4edaf	-0.35337588
253	0x3dab4f4a	0.083647326
254	0x3da37c48	0.07982689
255	0xbe2d3a9c	-0.16916889

conv_layers.1.0.bias f4 [64]
0	0x3ce198a2	0.027538601
1	0x39e022d5	0.0004275056
2	0x3c8e348a	0.017359037
3	0xb780082c	-1.5262594e-05
4	0x3db70ddd	0.08938191
5	0xbd669849	-0.056297574
6	0x3cb60558	0.022219345
7	0xbd9aea73	-0.07564249
8	0x3d27e1b6	0.04098674
9	0xbc3fd53f	-0.011708557
10	0x3954241d	0.00020231349
11	0xbd8c09b9	-0.06837792
12	0xbd2a7a82	-0.04162074
13	0xbd79e602	-0.06101037
14	0xb7cd6caa	-2.4488505e-05
15	0xbc4f8d8b	-0.012668024
16	0xba069d5a	-0.00051351415
17	0xbbcbc471	-0.006218486
18	0x3c21abff	0.009867667
19	0x3859326b	5.1783787e-05
20	0xbd50a456	-0.050937973
21	0xb706b29a	-8.028606e-06
22	0xbdbf6c95	-0.09346882
23	0x36f68c31	7.3476917e-06
24	0x3aa3ad16	0.0012487497
25	0x38374a42	4.3699758e-05
26	0x3b5cf45b	0.0033714983
27	0x3dbef3fc	0.0932388
28	0xbcc7037a	-0.02429365
29	0x3dcc6f5a	0.09982176
30	0xbbcc98cf	-0.006243802
31	0xb98eee79	-0.00027262027
32	0x3dae02de	0.084966406
33	0xbc26ba21	-0.0101762125
34	0x388c26ec	6.68297e-05
35	0xbc0a3995	-0.00843658
36	0x38203510	3.819639e-05
37	0xb9bfea81	-0.00036605078
38	0xbc7ed83b	-0.015554483
39	0x3c4959ab	0.012289445
40	0xbd081f2a	-0.033232845
41	0x3ce515f7	0.027964575
42	0x371bd95b	9.289327e-06
43	0xbd9bb140	-0.07602167
44	0xbdb91cc9	-0.090386935
45	0xbdb2e8ab	-0.08735784
46	0xbc0ad1b0	-0.008472845
47	0x3c3863cf	0.011254265
48	0xbdb6e2f5	-0.08930007
49	0x3d3ed911	0.04659373
50	0x39bc5f21	0.0003592903
51	0xbb9e49a1	-0.0048305546
52	0x378200d1	1.5497588e-05
53	0xbd956ea1	-0.072964914
54	0x38184833	3.6306865e-05
55	0x3cdf7174	0.027275778
56	0xb98163aa	-0.00024679053
57	0x3d5e2642	0.054235704
58	0x3bfd7ec3	0.0077360584
59	0xbb28692d	-0.0025697455
60	0x39ed0203	0.0004520566
61	0xbb1fd7b0	-0.0024390034
62	0xba857f2c	-0.0010184995
63	0xbd5a9433	-0.05336399

conv_layers.1.1.weight f4 [64]
0	0x3f80a400	1.0050049
1	0x3f80b33e	1.00547
2	0x3f822857	1.0168561
3	0x3f7a30a2	0.9773046
4	0x3f6ad7e4	0.9173567
5	0x3f851341	1.0396501
6	0x3f7caba9	0.9869943
7	0x3f71057c	0.94148993
8	0x3f75e969	0.9605928
9	0x3f7731a8	0.96560144
10	0x3f764da2	0.9621221
11	0x3f767d7f	0.9628524
12	0x3f79dca0	0.9760227
13	0x3f71811a	0.9433762
14	0x3f74cf88	0.9562917
15	0x3f765ea1	0.9623814
16	0x3f7cbb37	0.9872317
17	0x3f7bf4e5	0.98420554
18	0x3f8103d8	1.0079298
19	0x3f795077	0.97388405
20	0x3f793ba8	0.97356653
21	0x3f7dbf7f	0.99120325
22	0x3f74d7cb	0.95641774
23	0x3f810e31	1.0082456
24	0x3f79f597	0.97640365
25	0x3f775ecc	0.96629024
26	0x3f75f51f	0.9607715
27	0x3f77683e	0.96643436
28	0x3f768675	0.96298915
29	0x3f6d6ddb	0.9274575
30	0x3f7c9d88	0.98677874
31	0x3f81f07f	1.0151519
32	0x3f7b3b1e	0.9813708
33	0x3f809a9c	1.0047183
34	0x3f766ac4	0.9625666
35	0x3f79bf0c	0.9755714
36	0x3f7acaa4	0.97965455
37	0x3f728b76	0.9474405
38	0x3f75f465	0.9607604
39	0x3f767a77	0.96280617
40	0x3f774f02	0.9660493
41	0x3f736767	0.95079654
42	0x3f8075c4	1.0035939
43	0x3f724e9a	0.94651186
44	0x3f7c4d4e	0.9855546
45	0x3f803294	1.0015435
46	0x3f7bf103	0.9841463
47	0x3f7c68de	0.98597515
48	0x3f75bef7	0.95994514
49	0x3f801009	1.0004894
50	0x3f75092b	0.95717114
51	0x3f82396c	1.0173774
52	0x3f775e2e	0.9662808
53	0x3f7dd39f	0.99151033
54	0x3f7bf794	0.9842465
55	0x3f72cb5e	0.94841564
56	0x3f828e31	1.0199643
57	0x3f7aaa20	0.9791584
58	0x3f7393ed	0.9514759
59	0x3f78e921	0.97230726
60	0x3f7d00ce	0.9882935
61	0x3f80a12a	1.0049183
62	0x3f71ed99	0.9450317
63	0x3f75d30a	0.96025145

conv_layers.1.1.bias f4 [64]
0	0xbd13e32f	-0.03610533
1	0x3cbf6ca7	0.02336724
2	0x3c8ac852	0.016941223
3	0x3cbd7550	0.023127228
4	0x3ba1cf2c	0.004938027
5	0xbc87055f	-0.016482053
6	0x3d2a8427	0.041629937
7	0x3c710308	0.014710195
8	0x3be54b9e	0.0069975397
9	0xbb977fc1	-0.0046233837
10	0x3cefcee6	0.029273462
11	0xbd4025e7	-0.046911146
12	0xbd7ffaac	-0.06249492
13	0x3d0d825d	0.034548152
14	0x3d35e739	0.044409964
15	0xb98071cc	-0.00024498848
16	0xbd8828bd	-0.06648395
17	0x3c535549	0.012898752
18	0x3d225968	0.039636046
19	0x3d348cb4	0.044079497
20	0x3d0a036d	0.033694673
21	0xbd25295f	-0.040322658
22	0x3c8bed86	0.017081033
23	0x3d2ec775	0.042670686
24	0x3d32c7cc	0.043647572
25	0xbc879e0d	-0.016554857
26	0x3a02afe2	0.0004985315
27	0x3d545779	0.051841233
28	0x3d0bbd0b	0.034115832
29	0xbd5e4050	-0.054260552
30	0x3c77c54a	0.015122721
31	0x3c95a6b8	0.018267974
32	0x3be29725	0.0069149905
33	0x3cfc152f	0.03077182
34	0x3cdc0a1c	0.02686029
35	0xbd8c11be	-0.068393216
36	0xbc99ce17	-0.01877503
37	0x3cb5e152	0.022202168
38	0x3d1d41ae	0.038392715
39	0x3cc5fff7	0.024169905
40	0x3bd479da	0.0064842524
41	0x3c757424	0.014981303
42	0x3bca1ff0	0.006168358
43	0xbd1d4fd6	-0.038406216
44	0xbc21879d	-0.009858993
45	0xbd863abb	-0.06554171
46	0xbd23fd6a	-0.040036596
47	0x3c64068e	0.013917578
48	0x3b6e216f	0.0036335846
49	0xbd41236c	-0.04715292
50	0x3d11d5d9	0.03560433
51	0xbbbf10a5	-0.0058308416
52	0x3d0404a8	0.032231003
53	0x3d11b3e7	0.03557196
54	0xbd3d11a7	-0.046159413
55	0x3d02f759	0.03197417
56	0x3c95a1db	0.018265655
57	0xbd6a4414	-0.05719383
58	0x3b8a18a4	0.004214363
59	0xb9ef9018	-0.0004569299
60	0x3cad81c6	0.021180045
61	0x3cab7e7f	0.020934341
62	0x3ccda740	0.025104165
63	0x3d2ab747	0.041678693

conv_layers.1.1.running_mean f4 [64]
0	0xbd94be1f	-0.07262825
1	0x3d31fba9	0.043452892
2	0xbc402b9e	-0.011729149
3	0xbe8ae6b0	-0.27129126
4	0x3f4fba56	0.811437
5	0xbd0f852e	-0.03503912
6	0x3e8b07b4	0.27154315
7	0x3ef04345	0.46926323
8	0x3e04c667	0.1296631
9	0xbf1340d7	-0.5752081
10	0x3ebe46e7	0.3716347
11	0xbf532549	-0.8247877
12	0xbeda9c02	-0.4269715
13	0x3ec83f87	0.39110968
14	0x3f33bfef	0.7021474
15	0xbf5f3182	-0.8718492
16	0xbf0669c0	-0.5250511
17	0xbe490a7d	-0.19632907
18	0xbd0cfa6e	-0.034418516
19	0x3e883093	0.2659956
20	0x3e24d34a	0.16096225
21	0x3d268d87	0.040662315
22	0xbea5d10f	-0.32386062
23	0xbd1d2fbf	-0.038375612
24	0x3e32dfe3	0.17468219
25	0x3eb7bd2c	0.35886514
26	0x3efd7a89	0.4950755
27	0x3f0c6ce6	0.54853666
28	0x3f1d09c0	0.61343
29	0x3f15b768	0.5848298
30	0x3d906312	0.07050146
31	0xbd9de31a	-0.07709332
32	0xbe88eddb	-0.2674397
33	0xbd8aca5d	-0.06776879
34	0x3e28d607	0.16487895
35	0xbc444092	-0.011978285
36	0xbe487e40	-0.1957941
37	0x3d973691	0.073834546
38	0x3e6c2c37	0.23063742
39	0xbea499c7	-0.32148573
40	0xbf2591e1	-0.6467572
41	0xbf0ca295	-0.5493558
42	0xbe588b87	-0.21146975
43	0x3f14f0dc	0.5818002
44	0xbeab3871	-0.334415
45	0xbdcc5b69	-0.099783726
46	0xbd684467	-0.05670586
47	0xbee65389	-0.44985607
48	0xbeefaba1	-0.4681063
49	0xbe8b7fa5	-0.27245823
50	0xbf1e4f16	-0.61839426
51	0xbc1ad8e8	-0.009451129
52	0x3f62e328	0.8862786
53	0xbebac2e5	-0.36476818
54	0x3e95bfb6	0.29247826
55	0x3f0f36bc	0.55942893
56	0xbddd52c1	-0.108068
57	0xbbf5d844	-0.0075025875
58	0xbeb92473	-0.3616062
59	0xbe2568c6	-0.16153249
60	0xbec82790	-0.39092684
61	0xbe15bf4d	-0.14623757
62	0x3ee13a36	0.43989724
63	0x3f09fb0a	0.5389868

conv_layers.1.1.running_var f4 [64]
0	0x3a4b4144	0.0007753561
1	0x397cc276	0.00024105035
2	0x3aac5f92	0.0013151041
3	0x3b8e8e59	0.0043504653
4	0x3cdf15b3	0.027232027
5	0x3b31479b	0.0027050737
6	0x3b628884	0.0034566233
7	0x3c766454	0.0150385685
8	0x3a8a9aa7	0.0010574654
9	0x3c8c81a9	0.01715167
10	0x3c01c09b	0.007919456
11	0x3ce55345	0.027993808
12	0x3be5a7b8	0.007008519
13	0x3c2dccff	0.010607957
14	0x3ce4a348	0.02790989
15	0x3d1b8ac9	0.037974153
16	0x3c5dff79	0.013549679
17	0x3b344d13	0.002751176
18	0x3a06d70e	0.000514374
19	0x3b738e02	0.00371635
20	0x3b904ee8	0.0044039376
21	0x3a4ab76d	0.0007733021
22	0x3b64fb04	0.0034939656
23	0x3abe2d82	0.0014509412
24	0x3af9cf76	0.001905902
25	0x3bc71016	0.0060749156
26	0x3c34a768	0.011026241
27	0x3c4b1c7a	0.012396926
28	0x3cb111a2	0.021614853
29	0x3c497149	0.012295076
30	0x3a57e3e0	0.0008235555
31	0x399f4bd7	0.00030383348
32	0x3bc4173f	0.0059842165
33	0x39f31672	0.00046365295
34	0x3b31faee	0.0027157622
35	0x39443cca	0.00018714662
36	0x3b9a4d90	0.004708953
37	0x3a01c9b3	0.0004951015
38	0x3b317357	0.0027076805
39	0x3c016c3f	0.007899343
40	0x3c8a2532	0.01686344
41	0x3c98a86a	0.018634994
42	0x3b864cab	0.004098495
43	0x3cb8a7f3	0.022541022
44	0x3b5cacdd	0.003367237
45	0x3998ad84	0.00029120978
46	0x3a0ee0a1	0.00054503424
47	0x3c4633a9	0.012097278
48	0x3bd4188f	0.006472654
49	0x3bde62c6	0.006786677
50	0x3cb6fd46	0.022337567
51	0x39fea3a9	0.00048568592
52	0x3d2c6f5d	0.04209839
53	0x3bcaa32a	0.0061840015
54	0x3b9e0963	0.0048228963
55	0x3c699755	0.014257272
56	0x3a03d0dd	0.00050283765
57	0x3b1f846d	0.0024340407
58	0x3be7f0d5	0.00707827
59	0x3a8c3998	0.0010698317
60	0x3be0479f	0.0068444754
61	0x3b03603e	0.0020046378
62	0x3c31395f	0.010816901
63	0x3c99168e	0.018687513

conv_layers.1.4.weight f4 [64, 64, 5]
0	0x3d38e44c	0.045139596
1	0xbc89c07b	-0.016815415
2	0xbb49c4d7	-0.0030787492
3	0x3cea900b	0.028633138
4	0xbc2f39d6	-0.0106949415
5	0x3ce18d9d	0.027533347
6	0x3d3e51a4	0.046464577
7	0xbc3fc987	-0.011705763
8	0xbd18a50f	-0.037266787
9	0x3c5ec776	0.01359736
10	0x3d100ebe	0.03517031
11	0x3d89f551	0.067362435
12	0x3bf72a70	0.0075429007
13	0x3c368aca	0.011141488
14	0xbcba79a2	-0.022763077
15	0xbd20d6b1	-0.039267246
16	0xbd93c9ad	-0.07216201
17	0xbd8bda01	-0.0682869
18	0x3d23293d	0.03983425
19	0xbd40a37d	-0.047030915
20	0x3c0b7f55	0.008514245
21	0x3cd7a7d1	0.026325138
22	0xbd010d73	-0.031506967
23	0x3d0979f7	0.03356358
24	0x3c9156e3	0.017741626
25	0x3d677aee	0.05651372
26	0x3c04c1b0	0.008102819
27	0x3d844bb1	0.064597495
28	0x3cc8a797	0.024493976
29	0x3d8d5bb8	0.069022596
30	0xbc591dba	-0.013251716
31	0xbd4be303	-0.049777042
32	0x3d28c20a	0.041200675
33	0x3bbb75ef	0.005720846
34	0x3ca24a84	0.019810922
35	0xbd608e54	-0.054823235
36	0xbd5fb64e	-0.05461722
37	0x3bad408b	0.005287235
38	0x3c86aaee	0.016438928
39	0x3cf92df5	0.030417422
40	0xbdb66396	-0.08905713
41	0xbc865c20	-0.01640135
42	0xbcd82e3c	-0.026389234
43	0x3cc03305	0.023461828
44	0xbd4abcf0	-0.04949659
45	0x3c28676a	0.010278562
46	0xbbcb758d	-0.0062090815
47	0xbd08ffa2	-0.033446915
48	0xbd19feb8	-0.037596434
49	0xbb9a0fa3	-0.004701571
50	0x3d120460	0.035648704
51	0xbd55231f	-0.052035447
52	0x3c43b025	0.011943852
53	0xbbcb64ac	-0.0062070694
54	0xbc7bb27b	-0.015362377
55	0xbbd595fe	-0.0065181246
56	0xbc5121c2	-0.012764396
57	0xbd31a185	-0.043366928
58	0x3ca505b2	0.020144317
59	0xbd18f3f1	-0.037342016
60	0x3af7320f	0.0018859523
61	0x3c5361e0	0.012901753
62	0x3d0504a8	0.032475144
63	0xbb54802d	-0.0032425032
64	0x3ccb1ec2	0.02479494
65	0xbc7e9975	-0.015539517
66	0xbd8d2c0d	-0.06893168
67	0x3acbe489	0.001555578
68	0x3c0831a4	0.0083126165
69	0xbc6e4fd0	-0.014545396
70	0xbd53f337	-0.05174562
71	0xbd988323	-0.07446887
72	0xbd496964	-0.049172774
73	0xb9ba55c4	-0.00035540585
74	0xbcb56696	-0.022143643
75	0x3b969159	0.0045949635
76	0x3c8e7b1f	0.017392693
77	0x3c1c176a	0.009527067
78	0x3cde1843	0.027111178
79	0x3c6bbde4	0.014388535
80	0xbd945223	-0.07242229
81	0xbd8f8f32	-0.07009734
82	0xbd322bd3	-0.043498825
83	0xbd91ad04	-0.07113078
84	0xbd20d169	-0.03926221
85	0x3cb405de	0.021975454
86	0x3b8bd083	0.0042668
87	0xbcc32d51	-0.02382532
88	0x3d5da205	0.054109592
89	0x3cd4f84b	0.025997302
90	0xbc365dab	-0.011130731
91	0xbd269bd2	-0.040675946
92	0x3d02b4d9	0.03191075
93	0xbce44b01	-0.027867796
94	0xbce988f4	-0.028507687
95	0xbd4b5176	-0.049638234
96	0xbd5b759e	-0.053578965
97	0xbcf01884	-0.029308565
98	0x3d6732ee	0.056445055
99	0x3c15f1d5	0.0091518955
100	0xbc873066	-0.01650257
101	0xbdaed05b	-0.085358344
102	0xbd9b2255	-0.07574908
103	0xbd76732c	-0.06016843
104	0xbd349c2f	-0.04409426
105	0xbc39860b	-0.011323462
106	0x3cafe645	0.021472106
107	0xbd3685c9	-0.04456118
108	0xbc5fce50	-0.013660029
109	0xbd32c9ef	-0.04364961
110	0x3cb28b0c	0.021794818
111	0x3bd304db	0.006439788
112	0x3d031db6	0.032010756
113	0xbcf20e88	-0.029547945
114	0x3c53982c	0.012914699
115	0xbb973361	-0.004614279
116	0x3c60c0cd	0.013717842
117	0xbbde4008	-0.0067825355
118	0x3d495abd	0.0491588
119	0xbd59694b	-0.05307893
120	0x3cf2f139	0.02965604
121	0x3cbaee04	0.022818573
122	0x3d225d88	0.03963998
123	0x3c9d90f9	0.019234167
124	0x3ce7f6f2	0.028315995
125	0x3c399111	0.01132609
126	0xbc4112e3	-0.011784288
127	0x3d01dd96	0.03170546
128	0x3d1e62a6	0.038668297
129	0xbcce6c29	-0.02519806
130	0x3d50a958	0.05094275
131	0xbb012a5b	-0.0019709084
132	0x3d199500	0.037495613
133	0x3b3318e9	0.002732808
134	0x3d20e322	0.03927911
135	0x3d2721a0	0.04080355
136	0x3b70a190	0.0036717393
137	0x3d764fa3	0.06013454
138	0x3d6fc56b	0.05853788
139	0x3bca167e	0.006167232
140	0xbd903a79	-0.07042403
141	0xbc2930ab	-0.010326545
142	0xbd672cd9	-0.056439254
143	0xbc502677	-0.012704483
144	0x3c114bf1	0.0088682035
145	0xbb525d52	-0.003209908
146	0x3cd9c20a	0.026581783
147	0xbc8e1caf	-0.017347662
148	0xbd1d0e20	-0.03834355
149	0xbd1edd79	-0.03878543
150	0x3ce06ad3	0.027394688
151	0xbc263819	-0.010145211
152	0xbbdf8ad8	-0.0068219714
153	0x3d45aec8	0.048262388
154	0x3cf2b55f	0.0296275
155	0xbbc8b403	-0.0061249747
156	0xbd2bf3f5	-0.041980702
157	0x3b82a6b6	0.0039871586
158	0xbd027a0e	-0.03185468
159	0x3d58bc94	0.052914217
160	0xbd714553	-0.058904003
161	0x3d0fa059	0.03506503
162	0xbca110d1	-0.019661339
163	0x3d27a6b3	0.04093046
164	0x3c7abfa0	0.015304476
165	0x3cf9c4b3	0.030489301
166	0xbbfbdb40	-0.0076860487
167	0xbd533948	-0.0515683
168	0x3d3776c4	0.044790998
169	0x3d120206	0.03564646
170	0xbd824ab2	-0.06361903
171	0xbb9bb246	-0.0047514765
172	0xbd3e2052	-0.04641754
173	0xbc58520f	-0.013203158
174	0xbd099d29	-0.033597145
175	0xbca42291	-0.020036014
176	0xbd2b5253	-0.041826557
177	0xbd4aa226	-0.049471043
178	0x3cb1f93f	0.021725295
179	0x3d099312	0.033587523
180	0x3ce94f94	0.028480329
181	0x3cf18205	0.029480943
182	0x3d3a57ef	0.045494016
183	0x3cf214dc	0.029550962
184	0x3d3bd901	0.045861248
185	0xbc770883	-0.015077713
186	0xbd147450	-0.036243737
187	0xbd823e9b	-0.06359597
188	0xbd29a12f	-0.041413482
189	0x3b9f0793	0.004853198
190	0x3c8f0b31	0.017461391
191	0x3c57ebc7	0.013178772
192	0xbd811f8a	-0.06304844
193	0xbcc815e2	-0.024424497
194	0x3d3fca04	0.046823516
195	0xbd5bb64f	-0.05364066
196	0xbd57f638	-0.052725047
197	0xbd1b084f	-0.03784972
198	0xbd2fd113	-0.042923998
199	0x3aef1e34	0.0018243254
200	0x3c0d7d3b	0.008635814
201	0x3cbd818d	0.023133064
202	0x3d11b51e	0.035573117
203	0xbd5db377	-0.05412623
204	0x3d117ea7	0.035521176
205	0xbd6237f4	-0.055229142
206	0x3c9cf9e7	0.019162131
207	0xbc0644d2	-0.008195119
208	0xbd0b9a29	-0.034082565
209	0x3ca09519	0.019602345
210	0xbcd7ba7e	-0.026334044
211	0xbb18d726	-0.0023321598
212	0xbd095ed6	-0.03353771
213	0x3d12008e	0.03564506
214	0x3c94092e	0.018070783
215	0x3c6ae1ba	0.014336044
216	0xbd2e8e56	-0.04261621
217	0xbc5db59a	-0.013532067
218	0x3ada003e	0.0016632152
219	0x3d311ad3	0.043238472
220	0xbd470fb4	-0.04859896
221	0xbd15e5dc	-0.036596164
222	0xbca78283	-0.020447975
223	0x3c79a707	0.015237576
224	0x3d4f264c	0.050573632
225	0xbd32532e	-0.043536358
226	0x3c15c567	0.009141303
227	0xbcbd0b93	-0.023076808
228	0xbb321a13	-0.0027176186
229	0x3ce1bf4a	0.027557034
230	0xbd4731f4	-0.048631623
231	0xb8b2c70d	-8.5247775e-05
232	0x3cc7b90d	0.024380231
233	0xbd49cf1e	-0.049269788
234	0x3cbc17e1	0.022960605
235	0xbce51a3d	-0.027966613
236	0xbd5d599d	-0.05404054
237	0x3be34f6c	0.006936958
238	0xbc8ef9f5	-0.017453173
239	0xbd1ffbb0	-0.039058387
240	0xbd490ab9	-0.04908249
241	0x3cc04e08	0.023474708
242	0xbb986668	-0.0046508797
243	0xbc909075	-0.017647007
244	0x3d106cd8	0.03526005
245	0x3cba2e05	0.022727022
246	0xbd77ad30	-0.0604679
247	0xbd448f5d	-0.047988284
248	0xbc1e66c4	-0.009668056
249	0x3d23fe38	0.040037364
250	0xbd6672d1	-0.05626184
251	0xbd8e41c4	-0.069461375
252	0xbd485a12	-0.048914023
253	0xbcaab7e4	-0.020839639
254	0xbd7713b7	-0.060321536
255	0x3c8db27f	0.017297028
