models/ssm_parameters.pth (torch, 75976 bytes, 4 tensors)

A f4 [16, 16]
0	0x3f5837f6	0.8446039
1	0x3f5cfdd5	0.86324817
2	0x3f70648f	0.9390344
3	0x3f65de2a	0.8979212
4	0x3f672f87	0.90306896
5	0x3f64570c	0.89195323
6	0x3f6bc22a	0.92093146
7	0x3f5d7ee1	0.86521727
8	0x3f727cc3	0.9472162
9	0x3f73e81f	0.95276064
10	0x3f58e294	0.8472073
11	0x3f8fcca3	1.1234325
12	0x3f64f5a8	0.8943734
13	0x3f54cafb	0.83122224
14	0x3f66b94e	0.901265
15	0x3f6b2161	0.9184781
16	0x3f554fd2	0.8332492
17	0x3f5bca2e	0.85855377
18	0x3f6f0e73	0.9338142
19	0x3f621286	0.88309515
20	0x3f62de0b	0.8862006
21	0x3f5f88a2	0.8731786
22	0x3f672ac4	0.9029963
23	0x3f5e0854	0.8673146
24	0x3f6ae30c	0.91752696
25	0x3f6f2efd	0.93431073
26	0x3f582e7f	0.8444595
27	0x3f900159	1.1250411
28	0x3f60cd3b	0.87813157
29	0x3f4d2b7e	0.8014449
30	0x3f6268d9	0.88441235
31	0x3f638f6b	0.88890713
32	0x3f4f75ea	0.810393
33	0x3f559d0f	0.8344278
34	0x3f6b159c	0.9182985
35	0x3f5ecda3	0.87032527
36	0x3f616d07	0.8805699
37	0x3f5b5990	0.85683537
38	0x3f64944b	0.8928878
39	0x3f51e50e	0.81990135
40	0x3f6a09e5	0.9142135
41	0x3f6bb68d	0.92075425
42	0x3f4e3cfb	0.805618
43	0x3f89c836	1.0764225
44	0x3f604a15	0.8761304
45	0x3f4dd3a4	0.8040106
46	0x3f638a16	0.8888258
47	0x3f60ed43	0.8786203
48	0x3f54f47a	0.8318554
49	0x3f569f6e	0.8383702
50	0x3f6ceacb	0.92545766
51	0x3f6210a8	0.88306665
52	0x3f618aee	0.88102615
53	0x3f5ea772	0.8697425
54	0x3f665780	0.89977264
55	0x3f586638	0.84530973
56	0x3f6ba07c	0.92041755
57	0x3f6d5940	0.9271431
58	0x3f521655	0.82065326
59	0x3f8ce135	1.1006228
60	0x3f615d03	0.8803255
61	0x3f4af70a	0.792832
62	0x3f61ad42	0.88154995
63	0x3f61fe80	0.8827896
64	0x3f587262	0.84549534
65	0x3f5aca04	0.854645
66	0x3f70a158	0.9399619
67	0x3f6386d0	0.8887758
68	0x3f680c13	0.90643424
69	0x3f6126aa	0.8794962
70	0x3f68f31c	0.90995955
71	0x3f5cd8b1	0.86268145
72	0x3f6dd585	0.9290393
73	0x3f70f6db	0.9412667
74	0x3f565dc6	0.83736837
75	0x3f901a48	1.125802
76	0x3f6343fb	0.88775605
77	0x3f4f8832	0.8106719
78	0x3f63b83b	0.8895299
79	0x3f668081	0.9003983
80	0x3f53c063	0.82715434
81	0x3f57c010	0.8427744
82	0x3f6e5814	0.93103147
83	0x3f5dd1f9	0.8664852
84	0x3f6071c5	0.876736
85	0x3f5b7126	0.85719526
86	0x3f61e52a	0.882403
87	0x3f5b254c	0.85603786
88	0x3f66498e	0.89955986
89	0x3f69d60f	0.9134225
90	0x3f542f97	0.82885116
91	0x3f8d0ccd	1.1019531
92	0x3f5dc3dd	0.8662699
93	0x3f4972be	0.7869071
94	0x3f600851	0.8751269
95	0x3f5f2149	0.87160164
96	0x3f556f0a	0.8337256
97	0x3f5cc0b1	0.86231524
98	0x3f6f9113	0.9358074
99	0x3f631c1e	0.8871478
100	0x3f6599c4	0.8968775
101	0x3f606193	0.87648886
102	0x3f66c66b	0.9014651
103	0x3f6055af	0.8763074
104	0x3f6da132	0.9282409
105	0x3f6d927a	0.9280163
106	0x3f57063f	0.83993906
107	0x3f9017e0	1.1257286
108	0x3f602407	0.87554973
109	0x3f50a28a	0.81498015
110	0x3f61521f	0.8801593
111	0x3f6738ec	0.9032123
112	0x3f4fda21	0.81192213
113	0x3f5661f1	0.83743197
114	0x3f6ac87d	0.9171217
115	0x3f5d8609	0.86532646
116	0x3f61c84b	0.8819625
117	0x3f5957b0	0.84899426
118	0x3f62871d	0.88487417
119	0x3f591437	0.8479647
120	0x3f6591a2	0.89675343
121	0x3f67f588	0.90609026
122	0x3f51278e	0.8170098
123	0x3f8d03cf	1.1016787
124	0x3f5c175c	0.85973144
125	0x3f4898f8	0.7835841
126	0x3f5c8fdd	0.8615702
127	0x3f5e9235	0.86941844
128	0x3f5705a5	0.8399299
129	0x3f5a11f8	0.8518367
130	0x3f6c950e	0.9241494
131	0x3f6133e2	0.8796979
132	0x3f650b9c	0.8947084
133	0x3f60bec0	0.8779106
134	0x3f641069	0.8908754
135	0x3f5d7284	0.8650286
136	0x3f697440	0.9119301
137	0x3f6da8cb	0.9283568
138	0x3f53c423	0.82721156
139	0x3f8f8618	1.1212797
140	0x3f5e0c23	0.8673727
141	0x3f4dc495	0.80378085
142	0x3f5e9941	0.86952597
143	0x3f661b8f	0.898858
144	0x3f5bf693	0.8592312
145	0x3f6172a5	0.8806556
146	0x3f73ad6e	0.9518651
147	0x3f667c5c	0.9003351
148	0x3f678e8b	0.9045188
149	0x3f645330	0.89189434
150	0x3f687d55	0.9081624
151	0x3f63aeca	0.8893858
152	0x3f6e6aa3	0.93131465
153	0x3f73ba2d	0.95205957
154	0x3f5bc76b	0.8585116
155	0x3f92a3cd	1.1456238
156	0x3f646298	0.8921294
157	0x3f4e49f4	0.80581594
158	0x3f65c9ed	0.8976124
159	0x3f69cd0b	0.91328496
160	0x3f534a4f	0.8253526
161	0x3f57bf4c	0.8427627
162	0x3f6db552	0.928548
163	0x3f63a452	0.8892261
164	0x3f63a372	0.8892127
165	0x3f5e62c5	0.8686946
166	0x3f686489	0.90778404
167	0x3f564d6c	0.83711886
168	0x3f6c8d12	0.92402756
169	0x3f70616c	0.93898654
170	0x3f541d26	0.82856977
171	0x3f8c5998	1.0964842
172	0x3f6548f8	0.89564466
173	0x3f4ed106	0.80787694
174	0x3f6799d8	0.9046912
175	0x3f6384b8	0.8887439
176	0x3f559968	0.83437204
177	0x3f5abf6b	0.8544833
178	0x3f6de9e3	0.9293501
179	0x3f6555be	0.8958396
180	0x3f682cc5	0.9069331
181	0x3f6081ae	0.87697875
182	0x3f6a0ecb	0.9142882
183	0x3f5a623c	0.85306144
184	0x3f71613e	0.94289005
185	0x3f705aae	0.93888366
186	0x3f531b13	0.82463187
187	0x3f8e796f	1.1130809
188	0x3f651d55	0.8949788
189	0x3f53ed70	0.82784176
190	0x3f659cdd	0.8969248
191	0x3f68491d	0.9073656
192	0x3f56e985	0.8395007
193	0x3f5b16a8	0.85581446
194	0x3f70a91d	0.94008046
195	0x3f623ec5	0.8837703
196	0x3f66395d	0.8993128
197	0x3f61403a	0.87988627
198	0x3f683fa3	0.907221
199	0x3f5d645d	0.8648127
200	0x3f6b584d	0.9193161
201	0x3f6ec8c0	0.9327507
202	0x3f559bbe	0.8344077
203	0x3f8facd0	1.1224613
204	0x3f6105f6	0.8789972
205	0x3f4fad41	0.8112374
206	0x3f62ca61	0.88590056
207	0x3f64b659	0.8934074
208	0x3f54280b	0.828736
209	0x3f5982e7	0.84965366
210	0x3f6ed4a9	0.93293244
211	0x3f6202bb	0.88285416
212	0x3f65fc5e	0.89838207
213	0x3f5da150	0.8657427
214	0x3f68cc78	0.90936995
215	0x3f5cf2f2	0.86308205
216	0x3f6b02b4	0.91801
217	0x3f6d00e5	0.9257949
218	0x3f552344	0.83256936
219	0x3f8eb8d7	1.1150159
220	0x3f602f48	0.87572145
221	0x3f4e16cb	0.8050353
222	0x3f61fb46	0.8827404
223	0x3f651272	0.8948127
224	0x3f53197d	0.8246077
225	0x3f5af2e7	0.8552689
226	0x3f716ec5	0.94309646
227	0x3f5fc318	0.87407064
228	0x3f63ff29	0.8906122
229	0x3f5c01c1	0.85940176
230	0x3f6744f7	0.90339607
231	0x3f5cb4cb	0.8621337
232	0x3f6ba782	0.9205247
233	0x3f6ce17e	0.92531574
234	0x3f560f3b	0.8361699
235	0x3f8e4248	1.1113977
236	0x3f60136f	0.87529653
237	0x3f4f59b1	0.80996233
238	0x3f60e60d	0.8785103
239	0x3f62e8ad	0.88636285
240	0x3f595b86	0.8490528
241	0x3f5f8d47	0.8732495
242	0x3f7517a5	0.95739204
243	0x3f6530a5	0.8952735
244	0x3f683990	0.90712833
245	0x3f64528b	0.8918845
246	0x3f6a7db3	0.9159805
247	0x3f6205b2	0.8828994
248	0x3f6f3be4	0.9345076
249	0x3f735d97	0.9506468
250	0x3f5a80d7	0.85352844
251	0x3f91ed69	1.1400577
252	0x3f63ee46	0.8903545
253	0x3f516648	0.81796694
254	0x3f6564d8	0.89607
255	0x3f68ff4b	0.91014546

B f4 [16, 120]
0	0x3f6a8770	0.9161291
1	0x3ec3851b	0.3818749
2	0xbe8219b8	-0.25410247
3	0x3dc05263	0.09390714
4	0x3fd2f4f7	1.6481007
5	0xbf313215	-0.69217044
6	0xbfb02a03	-1.3762821
7	0xbefdcd16	-0.4957053
8	0xbf0bab7a	-0.5455853
9	0xbed22b68	-0.4104874
10	0x3feb98d3	1.8406013
11	0xbf497fa9	-0.7871042
12	0x3ee3d264	0.44496453
13	0xbebd6f73	-0.36999092
14	0x3e8e88f5	0.27838865
15	0x3e91135f	0.2833509
16	0xbf1d5bac	-0.61468005
17	0x3ee62265	0.44948116
18	0x3f564c87	0.8371052
19	0xbefb8465	-0.49124447
20	0x3f5aac3b	0.8541905
21	0xbf223f80	-0.63378143
22	0xbebb30a1	-0.36560538
23	0x3f08f211	0.53494364
24	0x3f0aaaf3	0.541671
25	0xbf02159e	-0.50814235
26	0xbe8002c7	-0.2500212
27	0x3f29807d	0.6621168
28	0xbeb0fe38	-0.34568954
29	0xc02d496c	-2.7076063
30	0x3ead63ee	0.33865303
31	0x3f71ad35	0.9440492
32	0x3fe4c91d	1.7873875
33	0x3f5e7c1e	0.8690814
34	0xbff07e6c	-1.8788581
35	0x3e21a982	0.15787318
36	0x3e9713dd	0.29507342
37	0xbf3414b7	-0.7034411
38	0x3f99dc78	1.2020407
39	0x3f8a76b8	1.081748
40	0xbe4c03e4	-0.19923359
41	0x3e5a98f8	0.21347415
42	0xbfb24f89	-1.3930522
43	0x3efab2ff	0.48964688
44	0x3ebd737e	0.37002176
45	0x3ec137d3	0.37737903
46	0xbf95718a	-1.1675274
47	0xbf833b9f	-1.025257
48	0x3eb9e8d8	0.36310458
49	0x3df4e336	0.119573995
50	0xbf917e39	-1.1366645
51	0x3bcdb639	0.006277826
52	0x3f98a9a4	1.192677
53	0xbfe0e097	-1.7568539
54	0xbf43fb4b	-0.7655532
55	0x3f298009	0.6621099
56	0x3f5782e7	0.84184116
57	0x3eb12281	0.34596637
58	0xbee9c28d	-0.45656243
59	0xbf7563a2	-0.9585515
60	0x3f2042ca	0.6260191
61	0x3e9f2ad2	0.31087357
62	0x3ef6a803	0.48175058
63	0xbfbb4511	-1.4630452
64	0x3e1b097f	0.15140341
65	0xbe07c519	-0.1325878
66	0x3e7c0a06	0.24613199
67	0xbf9597e5	-1.168698
68	0x3f8e6db1	1.1127225
69	0xbf56ed94	-0.83956265
70	0xbd0c6ea7	-0.034285214
71	0x3e7e591b	0.24838679
72	0x3f83a478	1.0284567
73	0x3e162488	0.14662373
74	0xbcd6d791	-0.026225837
75	0x3f6e68e6	0.9312881
76	0xbfcbd7a1	-1.592518
77	0xbe3f3f8e	-0.18676588
78	0xbf7d97fd	-0.9906004
79	0x3fe32a0f	1.774721
80	0xbe8a1845	-0.2697164
81	0xbe896f54	-0.2684275
82	0xbf87c3bf	-1.0606612
83	0xbef9e3d5	-0.48806635
84	0x3e90b40b	0.28262362
85	0x3de27e31	0.11059225
86	0xbe69316a	-0.22772756
87	0x3cae282b	0.021259388
88	0xbf92c159	-1.1465255
89	0xbf234f35	-0.63792735
90	0x3e13ea8f	0.14444946
91	0x3e05f13a	0.13080302
92	0xbf8d3a6b	-1.1033453
93	0x3fb56a2d	1.4173027
94	0x3ea622bf	0.32448384
95	0xbe0a17cf	-0.13485645
96	0xbeda4e5e	-0.42637914
97	0xbd593372	-0.053027578
98	0xbe8ba605	-0.272751
99	0xbec528c0	-0.38507652
100	0x3da3f665	0.080059804
101	0xbfb3f4cd	-1.4059082
102	0x3e807d10	0.25095415
103	0x3e9805d0	0.29691935
104	0xbf3cb1b7	-0.7370867
105	0xbf0e1a27	-0.55508655
106	0x3f503d5c	0.81343627
107	0xbe2b5d4b	-0.16734807
108	0x3f5c108b	0.8596274
109	0x3dd1e936	0.102495596
110	0x3dd222f2	0.102605715
111	0xbf866edf	-1.0502585
112	0x3fce3a9d	1.6111637
113	0x3ee5fc7a	0.44919187
114	0x3f78ec01	0.97235113
115	0x3f2308f5	0.6368554
116	0x3fbc047b	1.4688867
117	0xbf84888a	-1.0354168
118	0xbf56d43f	-0.8391761
119	0xbf5a3354	-0.8523457
120	0x3f0e3d35	0.55562145
121	0xbed57de8	-0.4169762
122	0x3d5d06b6	0.05396148
123	0x3d566b40	0.052348375
124	0xbe375e86	-0.17907152
125	0x3edfdb6f	0.43722102
126	0xbfac2f85	-1.3452002
127	0x3fe180cb	1.761743
128	0xbf2f80ed	-0.685561
129	0x3f928233	1.1445984
130	0xbf5b1863	-0.85584086
131	0xbfbf63f7	-1.4952382
132	0x4000392f	2.0034902
133	0xbddd90c2	-0.10818626
134	0xbf95a187	-1.1689919
135	0xbf11a186	-0.5688709
136	0xbee7b2af	-0.45253512
137	0x3f9ca3a5	1.223744
138	0x3f33ae3e	0.7018775
139	0x3f420f7b	0.7580487
140	0x3da55bc5	0.08074144
141	0xbfd597dc	-1.6686969
142	0x3fc1f8b8	1.5154028
143	0x3f15664e	0.5835923
144	0x3f27e961	0.6559048
145	0xbfa04777	-1.2521809
146	0x3f1bad17	0.6081099
147	0x3e10c18e	0.14136335
148	0xc0341805	-2.813966
149	0x3e77c123	0.2419477
150	0x3de7ccf2	0.11318387
151	0x3eb868e4	0.36017525
152	0x3f48aa64	0.78384995
153	0xbeb33825	-0.35003772
154	0x3e6b4cd6	0.2297853
155	0x3f1b6777	0.6070475
156	0xbf0e52d6	-0.5559515
157	0x401d87c0	2.4614105
158	0xbf68efe5	-0.9099105
159	0xbeaab887	-0.33343908
160	0x3f55a3c0	0.8345299
161	0x3f19818b	0.5996329
162	0xbfa70f38	-1.3051519
163	0xbeec4d08	-0.4615252
164	0xbfa553e0	-1.2916222
165	0x3f3496aa	0.70542395
166	0xbf9db32d	-1.2320305
167	0x3faa4b99	1.330432
168	0xbf53ff92	-0.82811844
169	0x4002765f	2.0384748
170	0x3f4a79cc	0.790921
171	0xbf92345a	-1.1422226
172	0x3f2aa829	0.6666284
173	0xbf20950f	-0.62727445
174	0x3eac8dfc	0.33702075
175	0xbf8b222e	-1.0869806
176	0x3c31c8a6	0.010851061
177	0x3f08a22c	0.53372455
178	0xbe8ea272	-0.2785831
179	0xbf6c210d	-0.9223793
180	0xbfb9f33c	-1.4527354
181	0x3f3fbf3d	0.7490118
182	0x3f99e8b6	1.2024143
183	0x3eb8b5fb	0.3607634
184	0x3fde9b7e	1.7391202
185	0xbf5403ee	-0.82818496
186	0x3ee7d334	0.45278323
187	0xbf954392	-1.1661246
188	0x3dd17588	0.102274954
189	0x3e0b394f	0.1359608
190	0x3f63f817	0.8905043
191	0xbd2847b6	-0.041084014
192	0x3eabd959	0.3356426
193	0xbec1d788	-0.3785975
194	0xbf469220	-0.7756672
195	0x3f4e7c51	0.8065844
196	0xbfc17e99	-1.511676
197	0x3fc04c9a	1.5023377
198	0x3f72a2aa	0.94779456
199	0xbeb654b2	-0.35611492
200	0xbf5a8096	-0.85352457
201	0x3d50f137	0.05101129
202	0x3ea36101	0.31909946
203	0x3e6de270	0.2323091
204	0x3ff2afe1	1.8959924
205	0xbfee56c2	-1.8620226
206	0xbe427151	-0.1898854
207	0x3f28f61e	0.66000545
208	0x3f56043a	0.836002
209	0xbf8b103e	-1.0864332
210	0xbf467f6c	-0.7753818
211	0xbecba6b2	-0.39775616
212	0xbf7c865c	-0.98642516
213	0x3f45ac9c	0.77216506
214	0x3e0cd74f	0.13754009
215	0xbe987235	-0.29774633
216	0x3ea91179	0.33021143
217	0x3df48b7b	0.11940666
218	0x3f694d15	0.9113324
219	0x3d54a592	0.051915713
220	0xbfff163e	-1.9928663
221	0x3ea8f335	0.32998052
222	0x3e065fed	0.1312253
223	0x3f3de68f	0.7417993
224	0x3f2bd94e	0.67128456
225	0xbf3e2622	-0.74276936
226	0xbf5e2743	-0.8677866
227	0x3e457884	0.19284254
228	0xbf654b22	-0.8956777
229	0x40089323	2.1339805
230	0xbffbe29e	-1.9678533
231	0x3f7ba12a	0.9829279
232	0xbf40a422	-0.75250447
233	0x3eb18d13	0.34677944
234	0x3e7e727f	0.24848364
235	0x3f8e62ac	1.1123862
236	0xbf66d4b3	-0.90168303
237	0x3eaf4fe4	0.3424064
238	0x3f561ae5	0.8363479
239	0xbf4adfc6	-0.792477
240	0x4003d99b	2.0601566
241	0xbf2baf80	-0.67064667
242	0x3f45adc5	0.77218276
243	0xbfe219ca	-1.766412
244	0xbebce6d0	-0.36894846
245	0xbe9130f4	-0.2835766
246	0xbda0458e	-0.078257665
247	0xbf81dce3	-1.0145534
248	0xbfb17222	-1.3862956
249	0x3dcd3f59	0.10021848
250	0xbf25dce6	-0.6479019
251	0x3fa348ff	1.2756652
252	0xbf626555	-0.8843587
253	0xbf708569	-0.9395357
254	0x3e37b578	0.17940319
255	0xbf6369d8	-0.8883338

C f4 [120, 16]
0	0x3e5db9ae	0.21652862
1	0xbe84fb7a	-0.2597311
2	0xbf483641	-0.78207785
3	0x3dca04e4	0.09864214
4	0xbf435721	-0.76304823
5	0xbe7846e7	-0.24245797
6	0x3f872801	1.0559083
7	0x3dc22024	0.094787866
8	0x3f640e23	0.8908407
9	0x3f5a237a	0.8521038
10	0x3f753d69	0.9579683
11	0x3cdc1719	0.026866483
12	0x3eb45ac8	0.3522551
13	0xbf402b62	-0.75066197
14	0xbfc34293	-1.5254692
15	0xbe71a2af	-0.23597215
16	0xbf062222	-0.5239583
17	0xbda89550	-0.08231604
18	0x3ea9f0f9	0.3319166
19	0x3ea25543	0.31705675
20	0x3f8455bc	1.0338664
21	0x3f35ca7c	0.7101209
22	0xbf09d72c	-0.5384395
23	0x3f213319	0.62968594
24	0x3d3cbff9	0.046081517
25	0x3bf836cb	0.007574891
26	0xbda9bf52	-0.082884446
27	0x3f274536	0.6533998
28	0xbfbb99d3	-1.4656318
29	0xbd214930	-0.039376438
30	0xbe994004	-0.29931653
31	0xbf827943	-1.0193256
32	0xbf0273f9	-0.5095821
33	0x3e8af133	0.27137145
34	0xbe368604	-0.1782456
35	0x3f86afc2	1.0522387
36	0x3f0bf0b5	0.54664165
37	0x3fa4ac29	1.2865039
38	0xbf90d178	-1.1313925
39	0xbf759571	-0.95931154
40	0xbf9f687b	-1.245376
41	0xbf963b6b	-1.1736883
42	0x3eccbf0d	0.3998951
43	0xbef73c58	-0.48288226
44	0x3ce6f8f1	0.028194876
45	0xbef370b6	-0.4754693
46	0x3fca6e78	1.5814962
47	0x3f9dd74c	1.2331328
48	0x3ef4a033	0.47778472
49	0x3fb99fab	1.4501852
50	0xbf0b16f3	-0.5433189
51	0xbfc72e25	-1.5560957
52	0xbea121ad	-0.31471005
53	0x3fa745a6	1.306813
54	0xbee94c5b	-0.45566067
55	0xc01925f8	-2.3929424
56	0xbf30ac61	-0.6901303
57	0xbfcf5e3a	-1.6200631
58	0x3f062e5c	0.5241449
59	0xbd3794c4	-0.04481961
60	0x3f9d53a8	1.2291155
61	0x3f4bcf94	0.79613614
62	0x3f0d1a70	0.55118465
63	0x3fd151e8	1.6353121
64	0xbea7f2ec	-0.32802522
65	0x3e0e2049	0.13879503
66	0xbf32aa2d	-0.6979092
67	0xbecc07fd	-0.39849845
68	0xbfacef33	-1.3510498
69	0xbf0615d9	-0.52377087
70	0x3e94fe01	0.2910004
71	0xbe6816dc	-0.2266497
72	0x3f83c16d	1.0293404
73	0xbec4123f	-0.3829517
74	0xc001c528	-2.0276585
75	0x3f30dd70	0.69087887
76	0x3d3c826b	0.046022814
77	0x3fa58830	1.2932186
78	0x3f85249a	1.0401795
79	0x3f8e5daf	1.112234
80	0xbfab2eb0	-1.3373623
81	0x3ece0088	0.4023478
82	0x3f7214f2	0.9456321
83	0xbe1cf373	-0.15327244
84	0xbfb6bc68	-1.4276247
85	0x3e0108f6	0.12601075
86	0xbe2a1357	-0.1660894
87	0x3f59ad81	0.8503037
88	0x3fec9443	1.8482746
89	0x3ed6fd6f	0.4199023
90	0x3ec967c2	0.39336973
91	0xbfd2e2a1	-1.6475412
92	0xbf0e90a8	-0.5568948
93	0xbebb7150	-0.36609888
94	0x3f53cda0	0.82735634
95	0x3d78a952	0.06070835
96	0x3ef764d6	0.4831912
97	0x3e2360d5	0.15954907
98	0x3f6d6190	0.92726994
99	0xbd38fbbe	-0.045161955
100	0xbf927096	-1.1440609
101	0x3fd206cd	1.6408325
102	0xbee4f1af	-0.4471564
103	0xbf071099	-0.527597
104	0x3f70561f	0.9388141
105	0xbf0df8cf	-0.55457777
106	0x3f2957d5	0.66149646
107	0xbfe0ceb0	-1.7563076
108	0xbefcc554	-0.493693
109	0x3f07bc69	0.53021866
110	0xbdfa9f91	-0.12237466
111	0x3e80aa03	0.2512971
112	0x3f114608	0.56747484
113	0x3e074845	0.13211162
114	0x3f94f242	1.1636431
115	0xbf858aef	-1.0433024
116	0xbec9261a	-0.39286882
117	0x3f488d60	0.7834072
118	0xbe5f5606	-0.21810159
119	0x3f93084c	1.1486907
120	0xbf9885ff	-1.1915892
121	0xbf7a028c	-0.97660136
122	0x3f683b5d	0.9071558
123	0x3f33a443	0.7017252
124	0xbf990263	-1.1953853
125	0x3e6d6dcd	0.23186417
126	0xbf2b9565	-0.6702483
127	0x3d221c0c	0.03957753
128	0x3dbd88c0	0.092545986
129	0xbf912ed4	-1.1342416
130	0x3f53e515	0.82771426
131	0x3f7ec8d6	0.995252
132	0xbf72d669	-0.94858414
133	0xbfceb2bb	-1.6148294
134	0xbefe9eae	-0.49730438
135	0x3f56b25a	0.8386589
136	0xbd363741	-0.044486288
137	0xbf7281b5	-0.9472917
138	0x3ea1eb7b	0.3162497
139	0xbe3fd2a9	-0.18732704
140	0x3e4fdbc0	0.20298672
141	0x3f635efd	0.88816816
142	0x3e8bbb47	0.2729132
143	0x3f87b817	1.0603055
144	0x3f10cbf3	0.565612
145	0xbf21e723	-0.6324331
146	0x3cf5255c	0.02992504
147	0x3fca709f	1.5815619
148	0xbdcb9681	-0.09940816
149	0xc029a8df	-2.650932
150	0x3f8fd147	1.1235741
151	0xbf8ae33f	-1.08506
152	0x3ee46e9e	0.44615644
153	0x3f565374	0.8372109
154	0xbeece05b	-0.4626492
155	0x3f5d3f6a	0.8642489
156	0xbfff1c17	-1.9930447
157	0x3e6782b9	0.2260846
158	0x3f2d52a2	0.6770421
159	0x3dae0a4c	0.08498058
160	0xbf17f2cb	-0.5935485
161	0x3f94f7b9	1.1638099
162	0x3ccf7b11	0.025327237
163	0x3dedb17f	0.1160612
164	0xbe9de6fa	-0.30840284
165	0x3ea9dd86	0.3317682
166	0x3ecf95a7	0.40543863
167	0xbfa02d72	-1.2513869
168	0xbf37d2c5	-0.71805984
169	0xbf1d9271	-0.61551577
170	0xbf0187e4	-0.5059798
171	0x3f84a278	1.0362082
172	0xbdf34cfb	-0.11879917
173	0xbe98916f	-0.29798457
174	0x3eaefd9b	0.3417786
175	0x3f3474eb	0.704909
176	0xbf7bb067	-0.98316044
177	0x3e93e7e4	0.28887856
178	0xbf004b94	-0.50115323
179	0xbe199c63	-0.15001063
180	0x3dfe631c	0.12421247
181	0xbf3fcfa9	-0.7492624
182	0x3f00c7f2	0.5030509
183	0x401743d0	2.363514
184	0x3efdbff0	0.495605
185	0xbef3b206	-0.4759676
186	0xbec76af3	-0.38948783
187	0xbe237d51	-0.15965773
188	0xbf5ff2b8	-0.87479734
189	0x3e3205d5	0.17385037
190	0xbf0635c0	-0.52425766
191	0x3f53626e	0.82572067
192	0x3db40b81	0.08791257
193	0xbea82526	-0.32840842
194	0xbee844a5	-0.45364872
195	0x3f0c0600	0.54696655
196	0xbe48fc21	-0.1962743
197	0x3ecfd73c	0.40593898
198	0x3f1e1061	0.6174374
199	0xbebd999d	-0.3703126
200	0xbf2d8d8e	-0.6779412
201	0xbf8b7796	-1.089587
202	0x3d1436aa	0.036184944
203	0xbfc13b4b	-1.509622
204	0x3f919b73	1.1375564
205	0x3ecd6fa5	0.4012424
206	0x3f101cb7	0.56293815
207	0x3fb3a794	1.4035516
208	0x3f64b9af	0.8934583
209	0xbe301205	-0.17194374
210	0xbebedb6b	-0.37276778
211	0x3d1c00aa	0.03808657
212	0xbfe3a7a4	-1.7785535
213	0xbffdd74d	-1.983133
214	0x3fa0a3b6	1.2549961
215	0x3f6c4da7	0.9230599
216	0xbe6a3e60	-0.22875357
217	0x3f3c26cb	0.73496693
218	0x3f89a395	1.0753046
219	0x3e30ecbe	0.1727781
220	0xbf9a01c2	-1.2031786
221	0x3e9e5ac7	0.30928633
222	0xbf007760	-0.5018215
223	0x3f6f960a	0.93588316
224	0x3fd153fd	1.6353756
225	0x3dab35fb	0.08359905
226	0xbf9e7435	-1.2379214
227	0xbf5aefe1	-0.85522276
228	0xbe8bcdbd	-0.27305403
229	0x3e77233c	0.24134535
230	0x3f822c0d	1.0169693
231	0xbeef3a92	-0.46724373
232	0x3fc3f35a	1.530864
233	0xbeb97f29	-0.36229828
234	0xbef60c48	-0.48056245
235	0xc003e22e	-2.06068
236	0x3d6d11be	0.05787825
237	0x3f83a107	1.0283517
238	0x3f3099d8	0.68984747
239	0x3e09e9bf	0.13468073
240	0xbf136964	-0.5758269
241	0xbf23f072	-0.64038765
242	0xbeca8a7b	-0.39558777
243	0x3f0074fe	0.50178516
244	0x3f7fb0ae	0.99878967
245	0xbeddf2fd	-0.43349448
246	0xbf942371	-1.1573316
247	0x3f08c0df	0.534193
248	0x3f2ecbbb	0.6827962
249	0xbd97ad2b	-0.07406076
250	0x3c163af6	0.009169331
251	0x3ee24bf6	0.4419858
252	0xbede0cb9	-0.43369082
253	0xbf6151b3	-0.8801529
254	0x3fd495be	1.6608198
255	0xbee92dd1	-0.45542768

D f4 [120, 120]
0	0x3daf7369	0.085669346
1	0x3f112728	0.5670037
2	0x3f8a7963	1.0818294
3	0xbfcd8342	-1.6055682
4	0x3ef64deb	0.48106322
5	0xbf3953b1	-0.7239333
6	0xbac76abc	-0.0015214304
7	0xbeb542b7	-0.35402462
8	0x3f554e02	0.83322155
9	0xbea63472	-0.32461888
10	0x3f404205	0.7510074
11	0x3f2b363f	0.6687965
12	0x3eddf555	0.43351236
13	0x3fbb4caa	1.4632771
14	0xbee284ad	-0.4424185
15	0x3f3dbb09	0.7411352
16	0xbe34e562	-0.17665628
17	0x3f83eb99	1.0306274
18	0xbedbb4b8	-0.42911315
19	0xbf32f5d9	-0.69906384
20	0x3e25d043	0.16192727
21	0x3f4c2b86	0.7975391
22	0x40030a95	2.0475209
23	0xbe48320e	-0.19550344
24	0xbe31e973	-0.1737421
25	0xbf4eee36	-0.8083223
26	0x3fb3ca74	1.4046159
27	0xbddff5f2	-0.10935582
28	0xbf6ef7f8	-0.9334712
29	0xbf145648	-0.57944155
30	0x3fc4cf8c	1.5375838
31	0xbf23fe88	-0.6406026
32	0x403f6b87	2.990938
33	0x3cc7b857	0.024379892
34	0x3d9a4ced	0.07534204
35	0xbdb8b363	-0.0901859
36	0x3db081bf	0.08618497
37	0xbe5e78d3	-0.21725778
38	0x3f6d7467	0.9275574
39	0x3ffbfc90	1.9686451
40	0x4007a43e	2.1193995
41	0xbf89c0d9	-1.0761977
42	0x3dd6782f	0.10472142
43	0xbf613fa9	-0.8798776
44	0xbf4529cf	-0.7701692
45	0x4042c05c	3.0429907
46	0x3f42d492	0.76105607
47	0x3e9b8cc5	0.30380836
48	0xbf176914	-0.5914471
49	0xc00d1a79	-2.2047408
50	0xbee8d775	-0.4547688
51	0xbf4ac20d	-0.7920235
52	0xbf343a44	-0.70401406
53	0xc0037aa9	-2.0543616
54	0x3ee69317	0.45034096
55	0x3fa08358	1.2540083
56	0x3f41740c	0.755677
57	0xbf7e9b9a	-0.9945618
58	0x3dbf2b16	0.0933439
59	0x3eb3d7fe	0.35125726
60	0xbf3d82d3	-0.74027747
61	0xbe8e71c9	-0.27821186
62	0x3f918604	1.1369023
63	0x3f09ffb9	0.53905827
64	0x3f28be43	0.65915316
65	0x3eb605e4	0.3555137
66	0xbfa2775d	-1.2692677
67	0xbfa792d0	-1.3091679
68	0xbf28cd49	-0.6593824
69	0x3fb376ca	1.4020627
70	0x3eb93e2c	0.36180246
71	0xbf3dc9d2	-0.7413608
72	0x3ff23737	1.89231
73	0x3fbd0fd2	1.4770453
74	0xbed375e9	-0.41300896
75	0xbd834a9f	-0.06410717
76	0xbe210a31	-0.15726544
77	0x3f4fdfce	0.81200874
78	0xbf7e4901	-0.99330145
79	0xbf025795	-0.5091489
80	0xbfb617e5	-1.4226042
81	0xbe5af3de	-0.2138209
82	0xbeae0fc3	-0.339964
83	0x3f59cd66	0.8507904
84	0xc00b07b0	-2.1723442
85	0x3e863f5e	0.2622022
86	0x4011789c	2.2729864
87	0x3f19af17	0.6003279
88	0x401b953c	2.4309835
89	0xbf83a4e7	-1.0284699
90	0xbfdb284d	-1.7121674
91	0xbfec7cbb	-1.8475565
92	0x3f597a28	0.8495202
93	0xbf5be0f5	-0.8589013
94	0xbfa9e594	-1.3273187
95	0x3f2d1ccb	0.6762206
96	0xbfe09bdb	-1.7547563
97	0xbdcb3d8b	-0.09923848
98	0x3ea153a7	0.31509134
99	0xbef51fca	-0.47875816
100	0xbdd22ea3	-0.102628015
101	0x3fce3cf7	1.6112355
102	0xbf7b6ebe	-0.98215854
103	0x3e3a193c	0.18173689
104	0xbe29fc97	-0.16600262
105	0xbe217be2	-0.15769914
106	0x3f7d668b	0.98984593
107	0x3fc3a6e9	1.5285312
108	0xbeeac8a2	-0.45856196
109	0xbe8bb783	-0.27288446
110	0x3f356566	0.70857847
111	0x3f95029b	1.164142
112	0x3f974621	1.1818277
113	0x3f4a49db	0.79018945
114	0x3fbb32ef	1.4624919
115	0x3f85911b	1.0434908
116	0x3eb12348	0.3459723
117	0x3f60c613	0.8780224
118	0xbf33900d	-0.7014168
119	0xbff2aa14	-1.8958154
120	0x3ec756b1	0.38933328
121	0xbf978ee3	-1.184048
122	0x3f9bf1be	1.2183149
123	0x3fa071cb	1.2534727
124	0xbe4bc4e8	-0.19899333
125	0x3f8678e5	1.0505644
126	0xbded019e	-0.11572574
127	0x3eaccdd4	0.33750784
128	0xbfee7750	-1.8630161
129	0x3f975f17	1.1825894
130	0xbfb8e324	-1.4444318
131	0x3e9da54d	0.30790177
132	0xbedabaa6	-0.42720526
133	0x3f048258	0.5176139
134	0xbf381aa9	-0.7191568
135	0x3fae81b9	1.3633338
136	0x3fd212bf	1.6411971
137	0x3e80dbb2	0.25167614
138	0xbd1fdb3e	-0.039027445
139	0x3f4d9ddf	0.8031902
140	0x3eae363c	0.34025753
141	0xbf3d37c5	-0.7391322
142	0xbf0d54e7	-0.55207676
143	0xbe0bd288	-0.1365453
144	0x3d742198	0.05960235
145	0x3f30b88a	0.69031584
146	0x3e959151	0.2921243
147	0x3eedc64b	0.46440348
148	0x3faa27c7	1.3293389
149	0xbf0c25f7	-0.5474543
150	0x3f4b220d	0.7934883
151	0xbf023ef5	-0.50877315
152	0xbf870b88	-1.0550394
153	0x3f00e72b	0.50352734
154	0x3ff4b1ce	1.9116762
155	0x3d11e149	0.03561524
156	0xbe7adad1	-0.24497534
157	0x3f15b36c	0.584769
158	0x3f0a2668	0.53964853
159	0xbe21dd40	-0.15807056
160	0xbf38b91c	-0.72157454
161	0x3c64bdf8	0.013961308
162	0x3f173476	0.59064424
163	0xbf5710b6	-0.84009874
164	0xbfd61c23	-1.6727337
165	0x3f9703be	1.1798017
166	0xbf62ba8a	-0.88565886
167	0x3f971380	1.1802826
168	0xbf31ee8b	-0.6950461
169	0xbf8c4fdb	-1.096187
170	0x3f9fc719	1.2482635
171	0x3fcbd800	1.5925293
172	0xbfaa00a9	-1.3281451
173	0xbfcbb43e	-1.591438
174	0x3f5c77ed	0.8612049
175	0x3f8ef481	1.1168367
176	0x3f19221c	0.5981767
177	0xbfb30996	-1.39873
178	0x3f9e60f9	1.2373344
179	0xbd0c8125	-0.03430285
180	0x3eda2544	0.42606556
181	0xbf039f2f	-0.5141477
182	0xbed86dcf	-0.42271277
183	0xbf41c079	-0.75684315
184	0xbdef99a4	-0.116992265
185	0x3e74b903	0.23898701
186	0xbfeb6719	-1.8390838
187	0xbf0bce0f	-0.54611295
188	0xbf8e96f1	-1.1139814
189	0x3e9fa497	0.3118026
190	0xbf4dd6db	-0.8040597
191	0x3e2f6af4	0.17130643
192	0x3db2cd27	0.08730536
193	0xbf1d4a29	-0.61441284
194	0xbc9363e7	-0.017991973
195	0xbfeed120	-1.865757
196	0xbf1dc616	-0.6163038
197	0x3ea4f1aa	0.32215625
198	0x3e354cec	0.17705125
199	0xbe1e33d0	-0.15449452
200	0x4011fcf7	2.2810647
201	0xbe2f58d6	-0.17123732
202	0xbf87426d	-1.0567147
203	0xbebae781	-0.36504748
204	0x3eeef36b	0.46670088
205	0xbf2b7c8f	-0.66986936
206	0x3fff8ea5	1.9965407
207	0x3f9279bb	1.1443399
208	0xbed0ef3f	-0.4080753
209	0x3f22cf54	0.6359761
210	0xbf1ef3b9	-0.6209064
211	0x3daa51a5	0.08316354
212	0xbefac54c	-0.4897865
213	0x3dfea862	0.1243446
214	0xbe73c132	-0.23804167
215	0xbebc0dab	-0.36729178
216	0x3e27840e	0.16358969
217	0x3f34cac2	0.70621884
218	0xbf02bd0d	-0.5106972
219	0x3fa120d9	1.2588149
220	0x3e96f7af	0.29485843
221	0x3f192861	0.5982724
222	0x3f419b95	0.75628024
223	0x3e4b51a1	0.19855358
224	0xbbecb8c4	-0.007224174
225	0xbfd3a26b	-1.6533941
226	0x3fd4714f	1.6597079
227	0x3e4db324	0.20087868
228	0xbfffa824	-1.9973187
229	0xbff8f939	-1.9451057
230	0x3ed9a91a	0.42511827
231	0xbd897ebf	-0.06713628
232	0xbf3ceff4	-0.7380364
233	0xbf8eddba	-1.1161416
234	0xbc39173b	-0.0112970425
235	0x3de0b704	0.109724075
236	0xbf97264f	-1.1808566
237	0xbd945283	-0.072423
238	0xbedff737	-0.43743297
239	0x3cc3d73e	0.023906346
240	0x3f80441f	1.0020789
241	0xbe88f1d2	-0.26746994
242	0x3dd3f6a4	0.10349777
243	0x3e422529	0.18959488
244	0x3eb411fe	0.35169977
245	0x3ecd0c09	0.40048245
246	0xbf8eac94	-1.1146417
247	0xbfda369a	-1.7047913
248	0x3f82a0d4	1.0205331
249	0x3ecfcac2	0.4058438
250	0x3f18749b	0.59552926
251	0x3f4b4580	0.79402924
252	0x3e518352	0.20460251
253	0x3f64f068	0.8942933
254	0xc01e7952	-2.4761548
255	0x3b04efa4	0.0020284439
