models/sub01.pt (torch, 474292 bytes, 6 tensors)

conv1.weight f4 [16, 1, 5]
00000000: 313d ae3e 9a95 573e 3468 13be f874 90be
00000010: 0cba f83d 1b7f 593e ca60 04bf b7a7 7d3d
00000020: c421 7a3e aa73 e73d 55f4 b9be 53a5 fb3d
00000030: fd02 2e3e d9f2 b9bd 9757 423e 9016 443e
00000040: 0623 18be 3646 323e bf6e a9be 7b5f 853e
00000050: 2876 953e 1eab abbe a84d b73e 42c5 31be
00000060: b0be f93c 47c4 25bd 21ab a6be 7231 c23e
00000070: 142d 30be 06e2 383e d17c 853d 7eb4 bb3d
00000080: a795 443e cd0f 28be aca4 5bbe 4e84 e0bd
00000090: 46f2 663e 70a6 6b3d 7638 183e 97ef a1be
000000a0: fb31 cabe 1ebf 8c3e 0a75 dc3b adc9 223e
000000b0: 9d36 523e 3e40 18be 4891 f13d e56e 82bd
000000c0: f56c 8f3e 17f0 b0be 6082 163e 70f0 273e
000000d0: 1d20 6ebe 1f88 38be 7801 843e e500 813e
000000e0: 2f03 dc3d 86c7 943d 66d2 c53e fc85 eebe
000000f0: cb40 45bd fbcc b13e 585f b1bb cec3 c53d
00000100: 2dc3 9ebd 32e2 053e ff7d 24be 0aa1 b13e
00000110: bf65 923e 6db7 f9bd 3f69 93be cdc3 e73e
00000120: c49a 19be 9f33 133e bc52 1cbe 485c 473d
00000130: 3518 81bd 99ac 70be de7f 683e ff1f 7a3e
0.3403106 0.21053162 -0.14395219 -0.2821424 0.121448606 0.21239893 -0.5171019 0.061927523
0.24426943 0.11301358 -0.36319223 0.122873925 0.16993327 -0.09079523 0.18978725 0.19149232
-0.1485711 0.17409596 -0.33092305 0.26049408 0.2919171 -0.3352899 0.35801435 -0.17360404
0.030486435 -0.040470388 -0.32552436 0.3792835 -0.17204696 0.18054971 0.065179475 0.091652855
0.19197713 -0.16412278 -0.21449536 -0.10962735 0.22553357 0.057531774 0.14865288 -0.31628105
-0.39491257 0.2748956 0.0067278193 0.15897246 0.20528646 -0.14868256 0.11795288 -0.06368808
0.28012815 -0.34558174 0.14698172 0.16400313 -0.23254438 -0.18020676 0.2578237 0.25195995
0.10742795 0.072646186 0.38637084 -0.46586597 -0.048157495 0.347267 -0.005412977 0.096564874
-0.077520706 0.13074568 -0.16063689 0.34693176 0.2859325 -0.12193189 -0.28791234 0.45266572
-0.15000445 0.1437516 -0.15265936 0.04867199 -0.06303445 -0.23503341 0.22705027 0.24426268

conv1.bias f4 [16]
00000000: 7372 a3be 459e 89be cd57 67be 192f 23be
00000010: 8fae 35be 25a1 2abe 7809 40be 31a2 e2bd
00000020: 3422 cabe a817 53be 14cc 2abe eb3b f5be
00000030: 2d0b a8be 8f7e f8be 9c12 27be c8eb a0be
-0.31923255 -0.26878563 -0.22592087 -0.15935935 -0.1774237 -0.16663034 -0.18753612 -0.11066092
-0.3947922 -0.20614493 -0.16679412 -0.47897276 -0.32821026 -0.48534057 -0.16315693 -0.31429887

conv2.weight f4 [32, 16, 5]
00000000: 7ae9 ad3c f6e5 a43d c878 b5bc 9f4b e83c
00000010: 41f4 a5bd 5416 0b3d 072f dcbd 85fe 5bbd
00000020: 08ce debc 42bb 19bd 4659 673d 9394 5fbd
00000030: ba43 213d 4dd7 39bc 3ecc b13d 4cc2 873d
00000040: e8bd a53d f4ed 583d 91f4 183d 04d7 8c3d
00000050: 2ebf c4bd c86a 3c3c 253b 003d 85b5 f2bc
00000060: e72d 343c ee4b d83b 5d5e 17bd bc93 a8bd
00000070: 0652 46bd ea8b 033d 6bdc 6a3d e09f a63c
00000080: 8e87 24bc 6bd5 03bd 69ec a5bb 50db 96bd
00000090: 79b6 863d 40f8 963d c7b0 3f3d 6048 f6bc
000000a0: 7a47 4bbd 33ef 9fbd 80e8 76bd 5cfa 2d3d
000000b0: 81f2 a7bd 2c73 dd3c cb75 6a3d 5b27 5ebd
000000c0: 10a7 e23d 719f 8fbd 1430 54bc e9d2 96bd
000000d0: 5094 2ebc 2572 883c b421 03bc 1acf 65bd
000000e0: 61b8 ac3c a40a f9bc b036 10bd 8571 d23d
000000f0: 82d2 45bd 39b9 8bbc a357 8f3d 8398 823d
00000100: 5a2e b83c 0182 a43d 75d6 a9bd 5354 523d
00000110: da56 f93c 68e9 d03b 53cf bbbd 8876 19bc
00000120: 35f2 99bd 8df7 b33d c33f bfbd 27c0 54bc
00000130: 553b 1f3d 9ab5 acbd 3bff f6bd 72c6 81bc
00000140: 5555 443c 5cfc 9b3d 0479 083d 2b83 4d3c
00000150: c7d3 debd b5fb bb3d 5c45 7c3d eb5c 58bd
00000160: c815 98bd 96d1 4bbd 75f3 be3d 9ef3 543d
00000170: a7d6 63bd 8259 33bd d427 613d 435a 803c
00000180: da5f eabd 4242 413d f441 1f3d c2cd 223d
00000190: 14e3 94bd e8c8 cd3d 4646 a7bc 0d9a c1bd
000001a0: 5fd9 0b3c f43a 8e3d 9225 dbbd a1fa d83c
000001b0: 841c 85bc 6d51 e1bd 59e1 5c39 e700 fcbc
000001c0: b3ba a5bd 46e6 2f3c 281a 5dbd f78e c93c
000001d0: 4013 37bd b77a 0fbe 434c 9a3d d603 22bd
000001e0: b827 113d 98b3 dcbd 0306 793d b81b 3cbc
000001f0: c9df 853c f158 483d c8d5 ba3d 147e b33d
00000200: 6fd6 8fbd 1b5a 813d 60a3 e83b 4839 803d
00000210: b644 abbd 1d28 993d f659 c13d 4f4c 303c
00000220: ea1b d5bd 98d0 b23c 0270 ac3d f454 253d
00000230: b15d 5a3c 2ee2 92bd 9065 5dbd c0eb 843d
00000240: 01c6 9cbd 3307 e8ba 6d7d 81bb cd68 773d
00000250: 1b91 ecbc fd93 84bd 466c f0bd e9cb e0bd
00000260: 7b67 863d c2e6 a5bc 559e 77bc 5c6d 29bd
00000270: 5015 ccbc b601 5e3d 6f7d 8f3d 206d 643d
00000280: 808f fabd e1c0 693d 3255 783d 81e5 09bc
00000290: deef a0bd 0a93 4ebd 7f6b a2bd 5ecb 573d
000002a0: b06b 8dbd 1cf2 773d 4264 45bc fc7c 82bd
000002b0: 14dc 09be 1ab1 c8bd 41c0 82bd f77b 063d
000002c0: d592 afbd 2a73 5ebc 80b2 94bd e455 b5bb
000002d0: 630c 0b3d a65e e9bd 695c 303d 86af 31bd
000002e0: 7ddb a23d d12e c33d 4f73 2a3d 6359 b1bd
000002f0: f2e6 c6bd 88ff 97bd 08cd a1bd 0b9c c5bd
00000300: a2ce 993d 0f2b e2bd bbf0 653d 239d b2bc
00000310: 5e0b fc3c 0a40 bcbd 3fd0 6b3c ee3c 493c
00000320: ae4c 87bb d968 c8bd 14d7 703d ad09 243d
00000330: 5bc8 603d 5052 d8bd 65d5 9ebd 6046 25bd
00000340: 95be 273d 82f2 b73d c77f 7b3d cfe2 cbbd
00000350: 0a42 9ebc d891 cdbd 5657 893d 6df1 be3d
00000360: 15d3 debd f763 c63d 4e78 db3b c819 a2bd
00000370: db22 4bbd f41e b4bd e6ca c03c 5c7e cebd
00000380: f94f a5bd 2496 153d 5a15 aa3d bf27 f03c
00000390: 6a61 9e3c 2d3e f0bd 8880 c43b 3263 45be
000003a0: b8d3 093d af01 e6bd a34f f5bd 96e8 713d
000003b0: 1e9f c33d 8871 d53d c812 a73d 9168 08bc
000003c0: bc06 a8bd a8f3 02be 5f9b 613d fefb 5fbd
000003d0: c4b9 3a3b cb26 95bc 69c8 9abd 4eba 853d
000003e0: aff0 9a3d 23eb f33c 8a92 36ba 8a6b c6bc
000003f0: d09e bc3d 4a8a debc ce8a 913c 8b95 11bd
0.021229494 0.08051674 -0.02215232 0.028356371 -0.08103228 0.03395684 -0.10751157 -0.053709526
-0.027197853 -0.0375321 0.056481622 -0.05458505 0.03937123 -0.011342836 0.08681534 0.06628856
0.08092862 0.052961305 0.03734261 0.068769485 -0.09606777 0.011500068 0.031306405 -0.02962757
0.010997272 0.0066008484 -0.036955226 -0.08231303 -0.048418067 0.032115854 0.057339113 0.020339906
-0.010042084 -0.032185953 -0.0050635827 -0.07366049 0.06577773 0.07371569 0.046799447 -0.030063808
-0.049628712 -0.078092955 -0.060280323 0.04247509 -0.08200551 0.027032457 0.057241242 -0.05423675
0.11067021 -0.07012833 -0.012950916 -0.07364447 -0.010655478 0.01665599 -0.008003641 -0.05610571
0.021084012 -0.030400582 -0.035208404 0.102755584 -0.04829646 -0.017056094 0.06999137 0.063767456
0.02248304 0.08032609 -0.082928576 0.05134995 0.030436922 0.0063754804 -0.09170403 -0.009366639
-0.075169004 0.08787451 -0.093383335 -0.012985266 0.038874943 -0.08433075 -0.120604 -0.015841696
0.011983235 0.07616493 0.033318534 0.01254348 -0.10880237 0.09178869 0.061589584 -0.05282299
-0.074260294 -0.049760424 0.093237795 0.051990144 -0.05562463 -0.043786533 0.054969624 0.01566804
-0.114440635 0.04718233 0.038881257 0.039747007 -0.07269874 0.100480855 -0.020419251 -0.09453211
0.008535712 0.06944838 -0.10700525 0.026486697 -0.016248949 -0.11001859 0.00021064784 -0.030762149
-0.08092251 0.010736054 -0.053980023 0.024604304 -0.044696093 -0.14011656 0.07534077 -0.03955444
0.03543827 -0.10776442 0.06079675 -0.011481218 0.01634206 0.048912946 0.09122807 0.08764282
-0.07023322 0.063160144 0.007099554 0.062609255 -0.08362715 0.07478354 0.09440987 0.010760381
-0.10405715 0.02182798 0.08419801 0.04036422 0.013328002 -0.071720466 -0.054051936 0.06490278
-0.07654954 -0.0017702341 -0.0039517195 0.06040268 -0.028877785 -0.06473539 -0.117394015 -0.10976393
0.06562706 -0.020251635 -0.015113433 -0.04136406 -0.024912506 0.05420085 0.070063464 0.055768132
-0.12234402 0.05706871 0.060628124 -0.008416534 -0.07858251 -0.050433196 -0.079306595 0.05268418
-0.069053054 0.060533628 -0.012047829 -0.06371495 -0.1346286 -0.097994044 -0.06384326 0.032833066
-0.08572928 -0.013577262 -0.07260609 -0.0055339206 0.03394736 -0.11395006 0.04305688 -0.043380283
0.0795202 0.09530414 0.041613873 -0.08659627 -0.09712018 -0.074217856 -0.07900435 -0.096489035
0.07510115 -0.11043369 0.05613778 -0.021803444 0.030767139 -0.09191902 0.014392911 0.012282593
-0.004129014 -0.09785623 0.058798864 0.04004829 0.054878574 -0.10562575 -0.077555455 -0.040350318
0.040953238 0.089818016 0.061401155 -0.0995537 -0.0193186 -0.10037583 0.06706111 0.09323392
-0.108801045 0.096870355 0.006697691 -0.07915074 -0.049593788 -0.08794966 0.02353425 -0.10082695
-0.08071894 0.03652014 0.08304854 0.029315827 0.01933356 -0.11730609 0.0059967674 -0.19276121
0.033649176 -0.1123079 -0.1197808 0.0590597 0.095518336 0.10422045 0.08157879 -0.008325712
-0.082044095 -0.1278826 0.055079814 -0.054683678 0.0028492073 -0.018206974 -0.075577565 0.065296754
0.07565438 0.029775208 -0.0006964585 -0.0242212 0.092099786 -0.02716555 0.017766383 -0.035543006

conv2.bias f4 [32]
00000000: 2f9f 8cbd a331 edbc 7680 cbbc 4a77 ffbc
00000010: 8172 a6bd 8bc5 87bd 9021 0ebd 69d7 6fbd
00000020: ff42 aabd 5527 b5bc e89b b6bd 86d4 55bd
00000030: 864d cbbc 4fa7 84bc c870 b3bd e5c7 3fba
00000040: 8d1b 1bbd 4b95 85bc e427 d4bc 49ba bdbc
00000050: 74fb 52bd 82d0 e4bb cb96 3ebd 71f1 71bc
00000060: 049c 0fbd 7de1 4bbd 547d e3bd b49b 46bd
00000070: 82f2 33bd 6c77 33bb 6ba6 c6bc f6ac 74bd
-0.06866299 -0.028954333 -0.024841528 -0.031184811 -0.08127309 -0.06629475 -0.034699976 -0.05855504
-0.0831356 -0.022113482 -0.089164555 -0.05220463 -0.02481724 -0.01619306 -0.08761746 -0.00073158584
-0.03786807 -0.01630654 -0.025897928 -0.023160117 -0.051509336 -0.006982864 -0.046530526 -0.014767037
-0.035060897 -0.04977559 -0.11107889 -0.048488334 -0.043932445 -0.0027384413 -0.024249276 -0.05973526

fc1.weight f4 [120, 960]
00000000: 391f 1e3a 47bc 9e3c c2e6 273c 0141 5cbd
00000010: d6cb fbbc 2cc3 fbbc dfc6 aa3c 0958 423c
00000020: 0337 8d3c 012e b13c ec75 783c 5bae 863c
00000030: 7248 71bc 70c1 d83c b2ba 32bb e120 8bbc
00000040: 7da1 62bc 9a5b cdbb 9770 6a3c d2fe 18bc
00000050: 8ee2 a93c 8c71 be3c ce9f 1d3c a1bb 3bbb
00000060: b65d 1a3c 1708 a4bc 8b5c c1bc 9659 31bd
00000070: b12a 3abc 214a 83bc 3271 bd3c 0b2f 183d
00000080: 5bf3 a0bc 4176 383a 781f 44bc f207 11bd
00000090: 4260 3ebd da50 5b3c 137f d6bc 3624 c1bc
000000a0: 761a e2bb e1b0 bd3c 36e2 df3b 431c 77bc
000000b0: d9a1 3e3b 0e2b 2c3c a063 be3c 3f70 0d3d
000000c0: 70c4 e93c 5b98 51bb 0b09 86bc 772a 5e3a
000000d0: 7f11 423c 9e66 3f3c 52b4 3fbb 610c 77bc
000000e0: 593f 61bd 673f 16bd 85b2 a63c 9ed4 efbc
000000f0: 0a4e 4c3d b7bf 39ba 634c 06bd 9592 ffbb
00000100: ac5e 33bc a79c 153c 859e 6d3c d5d7 b5bb
00000110: 19a4 9e3c 73eb 063c 642c 6e3d 4e32 893c
00000120: 7913 5f3d 58cd 143d a23f 403d 0714 1f3d
00000130: 8563 593b 05bf cabc 0437 dbbc ab94 cb3b
00000140: 618d 423c c044 613d 62da 553d c2d5 5ebb
00000150: b1a9 8dbb b64d 14bd 7fa0 2fbb f3a7 4ebc
00000160: 48d2 5b3c 87a5 643c 1b3f 48bd 8028 85bc
00000170: ea6c d43b 72b9 f7bc 770a 0c3c afb2 ebbc
00000180: d25b 5b3c 9f13 ff3c cf18 9dbc 61fc 183d
00000190: 4d98 dcbc 6f62 c13c 793b a2bc 5c9d fe3c
000001a0: b518 ff3b bedd c7bc e101 eb3b 13cd eebc
000001b0: ad42 013d 1183 bf3c cfc4 d9bc 77dd 0a3d
000001c0: d9f1 19bc fe59 a2bc 21d2 60bc e5ab 5bbc
000001d0: 2089 49bc 3ed2 543c 47a3 c63c 8720 65bd
000001e0: 2f48 f43c a373 d1bc 7f09 8c3a 7ba6 4a3b
000001f0: 2be4 f63c de5e 5e3c f376 b1bc a4b1 e53c
00000200: e757 9ebc 6993 d4bc e24d 97bc f88d 4ebc
00000210: 139f adbc c774 2b39 32ae 85bc 4046 ea3a
00000220: ee5d 7eb8 2fb4 df3c b80d 50bb e2bd 05bb
00000230: 68e6 ae3c 8cea ffbb 89e4 d53c 2cfb 593b
00000240: 57af cf3c 4120 79bc 386c ef3b 5ccd 03bd
00000250: 9792 863c ba39 00bc fc03 cc3c 04c1 b83c
00000260: 7a59 dabc ad15 60bc 42b8 f83c 5406 a43c
00000270: 0809 98bc 8132 3b3c a151 60bc 1cd4 29bc
00000280: aa11 8b3c 87a6 ae3c c492 c33b 5c8f b33c
00000290: 0393 f8bc c3cc bbbb b3c2 7aba 5b69 ac3c
000002a0: 6086 abbc 4587 a5bc a908 e5bc 01a7 99bc
000002b0: dca0 073c 8f81 59bb b4b1 82bb 4c95 0d3c
000002c0: 9f35 f73c 4a34 02bd 9bc3 bdbc 9f75 e4bc
000002d0: 05f9 5c3c 54b1 c13c 258b fabc f27a 793c
000002e0: 62fe 613c e6fa b13c c4ba bc3c 63aa 903c
000002f0: d137 9fbc 9ea7 993c 9350 fa3a fb48 043c
00000300: aa6e f5bc 9a16 ed3c 7b42 83bc 0fbd a9bc
00000310: 6bac c939 1f6e 35bc 1f37 843c 3343 a0bc
00000320: 834a 9b3c 0a8d b43c 95b2 843a 3b09 c63c
00000330: cade b43c 9893 d43c 1d61 5f3b edf7 eebc
00000340: 6aff d53b 3944 d6bc 0dc2 40bc 3a4f 9c3c
00000350: 4b87 c5bc 7c90 083c b802 70bc 291f bebc
00000360: b567 9c3c 21e4 5a3c 0ce7 dfbc c1a2 b7bb
00000370: e12c afbc dd17 243b ba27 023d b81d 23bd
00000380: b548 b3bc 945c 95bc f283 5dbc f948 10bc
00000390: f3b5 6a3c d6c6 cb3c 1d5a 473c 9c46 10bd
000003a0: 5af7 93bb 0a2b 63bc fd54 a63c 8c4b d13c
000003b0: 550c 64bc 01b4 f6bc 9fe0 58bc 367c 1a3c
000003c0: 8317 4c3c 6c40 67bb d781 36bd 98e3 673c
000003d0: f00b 04bd b237 93bc d935 bebc a86f f3ba
000003e0: 48c7 7a3b e36f c2bc 8534 cabc 2b46 febc
000003f0: 4781 5fbc f21b 523c 9e39 d7bc 6ae4 36bc
0.0006031874 0.019376887 0.010247888 -0.05377293 -0.030736845 -0.030732714 0.020846782 0.0118618095
0.017238146 0.021628382 0.0151648335 0.016440561 -0.014726745 0.026459426 -0.0027271924 -0.016983451
-0.013832447 -0.0062670233 0.01430907 -0.009338098 0.020737913 0.023247503 0.00962062 -0.002864577
0.0094217565 -0.020023389 -0.023603698 -0.043298326 -0.0113627175 -0.016026558 0.023125265 0.03715424
-0.01964729 0.0007036664 -0.011970393 -0.035407968 -0.046478517 0.013385976 -0.02618364 -0.023576837
-0.006900127 0.023155631 0.0068323864 -0.015082422 0.0029088168 0.010508312 0.023240864 0.034530874
0.028536052 -0.003198168 -0.016361734 0.00084749557 0.011844992 0.011682181 -0.0029251766 -0.015078635
-0.054992054 -0.03668156 0.020348797 -0.029276188 0.04987911 -0.00070857577 -0.03278769 -0.0077994564
-0.0109478645 0.009131587 0.014503126 -0.005549411 0.019365357 0.008234846 0.058147803 0.01674762
0.05446193 0.036328644 0.046935685 0.03883746 0.003317089 -0.024749288 -0.026759632 0.006212791
0.011874528 0.054997206 0.05221022 -0.0034001921 -0.0043232073 -0.036206923 -0.0026798544 -0.012613284
0.013416834 0.01395548 -0.048888307 -0.016254663 0.00648271 -0.030239794 0.008547417 -0.028771726
0.013388591 0.031137286 -0.019176869 0.037350062 -0.026928091 0.023606507 -0.01980375 0.031080894
0.0077849277 -0.024397727 0.007171855 -0.029150521 0.031557728 0.023377927 -0.026583103 0.03390261
-0.00939604 -0.019818302 -0.013721974 -0.013407682 -0.01230076 0.012989579 0.024247779 -0.055939224
0.029819576 -0.025567835 0.0010683982 0.0030921984 0.030138096 0.013572423 -0.021663165 0.028038807
-0.019329024 -0.025949197 -0.018469755 -0.01260709 -0.021194017 0.00016351334 -0.016318414 0.0017873719
-6.0645798e-05 0.027307598 -0.0031746458 -0.0020407368 0.0213501 -0.0078099426 0.02610995 0.0033261282
0.025352163 -0.015205444 0.007306602 -0.032178268 0.016427321 -0.007826263 0.024904244 0.022552975
-0.026653994 -0.013677043 0.030361298 0.020022549 -0.018558994 0.011425615 -0.013691337 -0.010365512
0.016976196 0.02131964 0.0059684236 0.021918945 -0.030343538 -0.0057311966 -0.00095657556 0.021046331
-0.020938098 -0.020206103 -0.027958231 -0.018756391 0.008278098 -0.0033188795 -0.003988469 0.008641552
0.030176936 -0.031788148 -0.023164561 -0.027888117 0.013487105 0.023644127 -0.030583927 0.015227066
0.01379356 0.021726083 0.023038276 0.017659372 -0.019435795 0.018756684 0.0019097499 0.0080740405
-0.029959995 0.028941441 -0.016022911 -0.020720033 0.0003846617 -0.011073618 0.016139565 -0.019563293
0.018956428 0.022039909 0.0010124022 0.024174323 0.02207889 0.025949284 0.0034084984 -0.029170955
0.006530692 -0.026155578 -0.011765015 0.019080747 -0.024112364 0.008335229 -0.014649086 -0.023208218
0.01909242 0.013360054 -0.027331851 -0.0056041186 -0.021383705 0.0025038638 0.031776167 -0.039823264
-0.021885255 -0.018232621 -0.013520228 -0.008806461 0.014325607 0.024875086 0.012167481 -0.03522359
-0.0045155706 -0.013865242 0.020304197 0.025548719 -0.013918956 -0.03011513 -0.013237148 0.009429028
0.0124567775 -0.00352862 -0.04455742 0.014153384 -0.032237947 -0.017970894 -0.023219036 -0.0018572705
0.0038265754 -0.023734992 -0.024683246 -0.031039318 -0.013641662 0.0128240455 -0.026272591 -0.011162857

fc1.bias f4 [120]
00000000: 2535 25bf a4d8 24bf 6188 24bf 165b 24bf
00000010: 4e5a 24bf b17c 24bf 51ab 24bf b5c7 24bf
00000020: 32a8 24bf 170f 24bf 35af 22bf c845 20bf
00000030: 2ebb 1cbf 3232 18bf 0a04 13bf 55b6 0dbf
00000040: 15f4 08bf 8282 05bf 1c20 04bf 154d 05bf
00000050: 5f17 09bf 7904 0fbf 7529 16bf 5f76 1dbf
00000060: 7e0a 24bf a847 29bf 0797 2cbf 7237 2dbf
00000070: 6293 2abf 6231 25bf 2593 1fbf 11c8 1dbf
00000080: 7e9d 22bf b662 2bbf 7326 2dbf de9a 17bf
00000090: c743 c1be 15d3 4abd 0b3d 9c3e 2ee5 0c3f
000000a0: 5812 123f 831b ba3e 420e 313c 92ef b4be
000000b0: 9911 1bbf 3886 32bf ac40 2bbf 6f2e 18bf
000000c0: f4ca 07bf 5f68 ffbe 22b2 fabe 4e17 f8be
000000d0: 2707 f2be 351b e8be 1f73 dcbe 78e7 d0be
000000e0: e324 c6be ba3d bcbe 6759 b3be 7cbd abbe
000000f0: 3061 a5be 6ca0 9fbe 7a65 99be 89a1 91be
00000100: 3daa 87be bf74 76be 806f 58be c936 35be
00000110: 132e 0dbe d2ff c2bd a25d 50bd 2045 e5bb
00000120: c884 0d3d 7347 943d 3148 d73d 1d85 053e
00000130: be31 143e f7f2 123e d81b f93d 7288 9a3d
00000140: ea41 b03b 966b aabd 1aa8 39be 1baf 8ebe
00000150: 2e97 bbbe ac84 e0be cc4f fcbe 40be 07bf
00000160: 39d9 0dbf 1c85 11bf 1ab4 13bf d80e 15bf
00000170: 78ec 15bf 3467 16bf 9d7f 16bf 903c 16bf
00000180: 2cb9 15bf ee1d 15bf 5190 14bf 9d29 14bf
00000190: 5af8 13bf 6504 14bf f04e 14bf 73d1 14bf
000001a0: 237f 15bf e649 16bf 0b27 17bf 8510 18bf
000001b0: dd01 19bf 23f4 19bf 51dd 1abf cdb3 1bbf
000001c0: 1373 1cbf 701d 1dbf 4ab9 1dbf 1f4c 1ebf
000001d0: 98d6 1ebf fe53 1fbf ecbc 1fbf cc0b 20bf
-0.6453422 -0.6439307 -0.642706 -0.64201486 -0.64200294 -0.64252764 -0.6432391 -0.6436723
-0.64319146 -0.64085525 -0.63548595 -0.6260648 -0.61223114 -0.5945159 -0.5742804 -0.5535634
-0.5349744 -0.52152264 -0.51611495 -0.5207074 -0.53551286 -0.558662 -0.5865701 -0.61508745
-0.6407851 -0.66124964 -0.6741795 -0.6766273 -0.6663114 -0.6452848 -0.623339 -0.616334
-0.63521564 -0.66947496 -0.67636794 -0.59220684 -0.37747023 -0.04951771 0.30515322 0.550372
0.5705924 0.36349115 0.010806622 -0.35339028 -0.60573727 -0.6973605 -0.66895556 -0.5944585
-0.53044057 -0.49884316 -0.4896403 -0.4845528 -0.47271082 -0.45333257 -0.4305658 -0.40801597
-0.38700017 -0.36765844 -0.35029146 -0.33543003 -0.3230071 -0.3117708 -0.29960233 -0.28443554
-0.2649707 -0.24067973 -0.21136284 -0.1769668 -0.13787107 -0.0952145 -0.050870545 -0.0069967657
0.03455046 0.0724019 0.10511816 0.1303906 0.144721 0.14350496 0.12163514 0.07545556
0.0053789513 -0.08321302 -0.18130532 -0.2786797 -0.36638778 -0.4385122 -0.4927963 -0.53024673
-0.5540958 -0.56843734 -0.5769669 -0.58225775 -0.5856395 -0.58751225 -0.5878847 -0.5868616
-0.58485675 -0.58248794 -0.5803271 -0.57875997 -0.5780083 -0.57819206 -0.5793295 -0.58132094
-0.5839712 -0.5870651 -0.5904395 -0.59400207 -0.5976847 -0.6013815 -0.6049395 -0.6082123
-0.6111309 -0.61373043 -0.61610854 -0.618349 -0.62046194 -0.62237537 -0.62397647 -0.62518
